layer {
  name: "data"
  type: "MemoryData"
  top: "data"
  top: "label"
  transform_param {
    crop_size: 224
  }
  memory_data_param {
    batch_size: 1
    channels: 3
    height: 224
    width: 224
  }
}
layer {
  name: "conv_1"
  type: "Convolution"
  bottom: "data"
  top: "conv_1"
  param {
    lr_mult: 1
    decay_mult: 1
  }
  param {
    lr_mult: 2
    decay_mult: 0
  }
  convolution_param {
    num_output: 64
    pad: 3
    kernel_size: 7
    stride: 2
    weight_filler {
      type: "msra"
    }
    bias_filler {
      type: "constant"
      value: 0
    }
  }
}
layer {
  name: "bn_1"
  type: "BatchNorm"
  bottom: "conv_1"
  top: "conv_1"
  param {
    lr_mult: 0
    decay_mult: 0
  }
  param {
    lr_mult: 0
    decay_mult: 0
  }
  param {
    lr_mult: 0
    decay_mult: 0
  }
  batch_norm_param {
    use_global_stats: true
  }
}
layer {
  name: "scale_1"
  type: "Scale"
  bottom: "conv_1"
  top: "conv_1"
  scale_param {
    bias_term: true
  }
}
layer {
  name: "relu_1"
  type: "ReLU"
  bottom: "conv_1"
  top: "conv_1"
}
layer {
  name: "pool1"
  type: "Pooling"
  bottom: "conv_1"
  top: "pool1"
  pooling_param {
    pool: MAX
    kernel_size: 3
    stride: 2
  }
}
layer {
  name: "conv_stage0_block0_proj_shortcut"
  type: "Convolution"
  bottom: "pool1"
  top: "conv_stage0_block0_proj_shortcut"
  param {
    lr_mult: 1
    decay_mult: 1
  }
  param {
    lr_mult: 2
    decay_mult: 0
  }
  convolution_param {
    num_output: 128
    pad: 0
    kernel_size: 1
    stride: 1
    weight_filler {
      type: "msra"
    }
    bias_filler {
      type: "constant"
      value: 0
    }
  }
}
layer {
  name: "bn_stage0_block0_proj_shortcut"
  type: "BatchNorm"
  bottom: "conv_stage0_block0_proj_shortcut"
  top: "conv_stage0_block0_proj_shortcut"
  param {
    lr_mult: 0
    decay_mult: 0
  }
  param {
    lr_mult: 0
    decay_mult: 0
  }
  param {
    lr_mult: 0
    decay_mult: 0
  }
  batch_norm_param {
    use_global_stats: true
  }
}
layer {
  name: "scale_stage0_block0_proj_shortcut"
  type: "Scale"
  bottom: "conv_stage0_block0_proj_shortcut"
  top: "conv_stage0_block0_proj_shortcut"
  scale_param {
    bias_term: true
  }
}
layer {
  name: "conv_stage0_block0_branch2a"
  type: "Convolution"
  bottom: "pool1"
  top: "conv_stage0_block0_branch2a"
  param {
    lr_mult: 1
    decay_mult: 1
  }
  param {
    lr_mult: 2
    decay_mult: 0
  }
  convolution_param {
    num_output: 32
    pad: 0
    kernel_size: 1
    stride: 1
    weight_filler {
      type: "msra"
    }
    bias_filler {
      type: "constant"
      value: 0
    }
  }
}
layer {
  name: "bn_stage0_block0_branch2a"
  type: "BatchNorm"
  bottom: "conv_stage0_block0_branch2a"
  top: "conv_stage0_block0_branch2a"
  param {
    lr_mult: 0
    decay_mult: 0
  }
  param {
    lr_mult: 0
    decay_mult: 0
  }
  param {
    lr_mult: 0
    decay_mult: 0
  }
  batch_norm_param {
    use_global_stats: true
  }
}
layer {
  name: "scale_stage0_block0_branch2a"
  type: "Scale"
  bottom: "conv_stage0_block0_branch2a"
  top: "conv_stage0_block0_branch2a"
  scale_param {
    bias_term: true
  }
}
layer {
  name: "relu_stage0_block0_branch2a"
  type: "ReLU"
  bottom: "conv_stage0_block0_branch2a"
  top: "conv_stage0_block0_branch2a"
}
layer {
  name: "conv_stage0_block0_branch_b_3by1"
  type: "Convolution"
  bottom: "conv_stage0_block0_branch2a"
  top: "conv_stage0_block0_branch_b_3by1"
  param {
    lr_mult: 1
    decay_mult: 1
  }
  param {
    lr_mult: 2
    decay_mult: 0
  }
  convolution_param {
    num_output: 32
    stride: 1
    weight_filler {
      type: "msra"
    }
    bias_filler {
      type: "constant"
      value: 0
    }
    pad_w: 1
    kernel_h: 1
    kernel_w: 3
  }
}
layer {
  name: "bn_stage0_block0_branch_b_3by1"
  type: "BatchNorm"
  bottom: "conv_stage0_block0_branch_b_3by1"
  top: "conv_stage0_block0_branch_b_3by1"
  param {
    lr_mult: 0
    decay_mult: 0
  }
  param {
    lr_mult: 0
    decay_mult: 0
  }
  param {
    lr_mult: 0
    decay_mult: 0
  }
  batch_norm_param {
    use_global_stats: true
  }
}
layer {
  name: "scale_stage0_block0_branch_b_3by1"
  type: "Scale"
  bottom: "conv_stage0_block0_branch_b_3by1"
  top: "conv_stage0_block0_branch_b_3by1"
  scale_param {
    bias_term: true
  }
}
layer {
  name: "relu_stage0_block0_branch_b_3by1"
  type: "ReLU"
  bottom: "conv_stage0_block0_branch_b_3by1"
  top: "conv_stage0_block0_branch_b_3by1"
}
layer {
  name: "conv_stage0_block0_branch_b_1by3"
  type: "Convolution"
  bottom: "conv_stage0_block0_branch_b_3by1"
  top: "conv_stage0_block0_branch_b_1by3"
  param {
    lr_mult: 1
    decay_mult: 1
  }
  param {
    lr_mult: 2
    decay_mult: 0
  }
  convolution_param {
    num_output: 32
    stride: 1
    weight_filler {
      type: "msra"
    }
    bias_filler {
      type: "constant"
      value: 0
    }
    pad_h: 1
    kernel_h: 3
    kernel_w: 1
  }
}
layer {
  name: "bn_stage0_block0_branch_b_1by3"
  type: "BatchNorm"
  bottom: "conv_stage0_block0_branch_b_1by3"
  top: "conv_stage0_block0_branch_b_1by3"
  param {
    lr_mult: 0
    decay_mult: 0
  }
  param {
    lr_mult: 0
    decay_mult: 0
  }
  param {
    lr_mult: 0
    decay_mult: 0
  }
  batch_norm_param {
    use_global_stats: true
  }
}
layer {
  name: "scale_stage0_block0_branch_b_1by3"
  type: "Scale"
  bottom: "conv_stage0_block0_branch_b_1by3"
  top: "conv_stage0_block0_branch_b_1by3"
  scale_param {
    bias_term: true
  }
}
layer {
  name: "relu_stage0_block0_branch_b_1by3"
  type: "ReLU"
  bottom: "conv_stage0_block0_branch_b_1by3"
  top: "conv_stage0_block0_branch_b_1by3"
}
layer {
  name: "conv_stage0_block0_branch2c"
  type: "Convolution"
  bottom: "conv_stage0_block0_branch_b_1by3"
  top: "conv_stage0_block0_branch2c"
  param {
    lr_mult: 1
    decay_mult: 1
  }
  param {
    lr_mult: 2
    decay_mult: 0
  }
  convolution_param {
    num_output: 128
    pad: 0
    kernel_size: 1
    stride: 1
    weight_filler {
      type: "msra"
    }
    bias_filler {
      type: "constant"
      value: 0
    }
  }
}
layer {
  name: "bn_stage0_block0_branch2c"
  type: "BatchNorm"
  bottom: "conv_stage0_block0_branch2c"
  top: "conv_stage0_block0_branch2c"
  param {
    lr_mult: 0
    decay_mult: 0
  }
  param {
    lr_mult: 0
    decay_mult: 0
  }
  param {
    lr_mult: 0
    decay_mult: 0
  }
  batch_norm_param {
    use_global_stats: true
  }
}
layer {
  name: "scale_stage0_block0_branch2c"
  type: "Scale"
  bottom: "conv_stage0_block0_branch2c"
  top: "conv_stage0_block0_branch2c"
  scale_param {
    bias_term: true
  }
}
layer {
  name: "eltwise_stage0_block0"
  type: "Eltwise"
  bottom: "conv_stage0_block0_proj_shortcut"
  bottom: "conv_stage0_block0_branch2c"
  top: "eltwise_stage0_block0"
}
layer {
  name: "relu_stage0_block0"
  type: "ReLU"
  bottom: "eltwise_stage0_block0"
  top: "eltwise_stage0_block0"
}
layer {
  name: "conv_stage0_block1_branch2a"
  type: "Convolution"
  bottom: "eltwise_stage0_block0"
  top: "conv_stage0_block1_branch2a"
  param {
    lr_mult: 1
    decay_mult: 1
  }
  param {
    lr_mult: 2
    decay_mult: 0
  }
  convolution_param {
    num_output: 32
    pad: 0
    kernel_size: 1
    stride: 1
    weight_filler {
      type: "msra"
    }
    bias_filler {
      type: "constant"
      value: 0
    }
  }
}
layer {
  name: "bn_stage0_block1_branch2a"
  type: "BatchNorm"
  bottom: "conv_stage0_block1_branch2a"
  top: "conv_stage0_block1_branch2a"
  param {
    lr_mult: 0
    decay_mult: 0
  }
  param {
    lr_mult: 0
    decay_mult: 0
  }
  param {
    lr_mult: 0
    decay_mult: 0
  }
  batch_norm_param {
    use_global_stats: true
  }
}
layer {
  name: "scale_stage0_block1_branch2a"
  type: "Scale"
  bottom: "conv_stage0_block1_branch2a"
  top: "conv_stage0_block1_branch2a"
  scale_param {
    bias_term: true
  }
}
layer {
  name: "relu_stage0_block1_branch2a"
  type: "ReLU"
  bottom: "conv_stage0_block1_branch2a"
  top: "conv_stage0_block1_branch2a"
}
layer {
  name: "conv_stage0_block1_branch_b_3by1"
  type: "Convolution"
  bottom: "conv_stage0_block1_branch2a"
  top: "conv_stage0_block1_branch_b_3by1"
  param {
    lr_mult: 1
    decay_mult: 1
  }
  param {
    lr_mult: 2
    decay_mult: 0
  }
  convolution_param {
    num_output: 32
    stride: 1
    weight_filler {
      type: "msra"
    }
    bias_filler {
      type: "constant"
      value: 0
    }
    pad_w: 1
    kernel_h: 1
    kernel_w: 3
  }
}
layer {
  name: "bn_stage0_block1_branch_b_3by1"
  type: "BatchNorm"
  bottom: "conv_stage0_block1_branch_b_3by1"
  top: "conv_stage0_block1_branch_b_3by1"
  param {
    lr_mult: 0
    decay_mult: 0
  }
  param {
    lr_mult: 0
    decay_mult: 0
  }
  param {
    lr_mult: 0
    decay_mult: 0
  }
  batch_norm_param {
    use_global_stats: true
  }
}
layer {
  name: "scale_stage0_block1_branch_b_3by1"
  type: "Scale"
  bottom: "conv_stage0_block1_branch_b_3by1"
  top: "conv_stage0_block1_branch_b_3by1"
  scale_param {
    bias_term: true
  }
}
layer {
  name: "relu_stage0_block1_branch_b_3by1"
  type: "ReLU"
  bottom: "conv_stage0_block1_branch_b_3by1"
  top: "conv_stage0_block1_branch_b_3by1"
}
layer {
  name: "conv_stage0_block1_branch_b_1by3"
  type: "Convolution"
  bottom: "conv_stage0_block1_branch_b_3by1"
  top: "conv_stage0_block1_branch_b_1by3"
  param {
    lr_mult: 1
    decay_mult: 1
  }
  param {
    lr_mult: 2
    decay_mult: 0
  }
  convolution_param {
    num_output: 32
    stride: 1
    weight_filler {
      type: "msra"
    }
    bias_filler {
      type: "constant"
      value: 0
    }
    pad_h: 1
    kernel_h: 3
    kernel_w: 1
  }
}
layer {
  name: "bn_stage0_block1_branch_b_1by3"
  type: "BatchNorm"
  bottom: "conv_stage0_block1_branch_b_1by3"
  top: "conv_stage0_block1_branch_b_1by3"
  param {
    lr_mult: 0
    decay_mult: 0
  }
  param {
    lr_mult: 0
    decay_mult: 0
  }
  param {
    lr_mult: 0
    decay_mult: 0
  }
  batch_norm_param {
    use_global_stats: true
  }
}
layer {
  name: "scale_stage0_block1_branch_b_1by3"
  type: "Scale"
  bottom: "conv_stage0_block1_branch_b_1by3"
  top: "conv_stage0_block1_branch_b_1by3"
  scale_param {
    bias_term: true
  }
}
layer {
  name: "relu_stage0_block1_branch_b_1by3"
  type: "ReLU"
  bottom: "conv_stage0_block1_branch_b_1by3"
  top: "conv_stage0_block1_branch_b_1by3"
}
layer {
  name: "conv_stage0_block1_branch2c"
  type: "Convolution"
  bottom: "conv_stage0_block1_branch_b_1by3"
  top: "conv_stage0_block1_branch2c"
  param {
    lr_mult: 1
    decay_mult: 1
  }
  param {
    lr_mult: 2
    decay_mult: 0
  }
  convolution_param {
    num_output: 128
    pad: 0
    kernel_size: 1
    stride: 1
    weight_filler {
      type: "msra"
    }
    bias_filler {
      type: "constant"
      value: 0
    }
  }
}
layer {
  name: "bn_stage0_block1_branch2c"
  type: "BatchNorm"
  bottom: "conv_stage0_block1_branch2c"
  top: "conv_stage0_block1_branch2c"
  param {
    lr_mult: 0
    decay_mult: 0
  }
  param {
    lr_mult: 0
    decay_mult: 0
  }
  param {
    lr_mult: 0
    decay_mult: 0
  }
  batch_norm_param {
    use_global_stats: true
  }
}
layer {
  name: "scale_stage0_block1_branch2c"
  type: "Scale"
  bottom: "conv_stage0_block1_branch2c"
  top: "conv_stage0_block1_branch2c"
  scale_param {
    bias_term: true
  }
}
layer {
  name: "eltwise_stage0_block1"
  type: "Eltwise"
  bottom: "eltwise_stage0_block0"
  bottom: "conv_stage0_block1_branch2c"
  top: "eltwise_stage0_block1"
}
layer {
  name: "relu_stage0_block1"
  type: "ReLU"
  bottom: "eltwise_stage0_block1"
  top: "eltwise_stage0_block1"
}
layer {
  name: "conv_stage0_block2_branch2a"
  type: "Convolution"
  bottom: "eltwise_stage0_block1"
  top: "conv_stage0_block2_branch2a"
  param {
    lr_mult: 1
    decay_mult: 1
  }
  param {
    lr_mult: 2
    decay_mult: 0
  }
  convolution_param {
    num_output: 32
    pad: 0
    kernel_size: 1
    stride: 1
    weight_filler {
      type: "msra"
    }
    bias_filler {
      type: "constant"
      value: 0
    }
  }
}
layer {
  name: "bn_stage0_block2_branch2a"
  type: "BatchNorm"
  bottom: "conv_stage0_block2_branch2a"
  top: "conv_stage0_block2_branch2a"
  param {
    lr_mult: 0
    decay_mult: 0
  }
  param {
    lr_mult: 0
    decay_mult: 0
  }
  param {
    lr_mult: 0
    decay_mult: 0
  }
  batch_norm_param {
    use_global_stats: true
  }
}
layer {
  name: "scale_stage0_block2_branch2a"
  type: "Scale"
  bottom: "conv_stage0_block2_branch2a"
  top: "conv_stage0_block2_branch2a"
  scale_param {
    bias_term: true
  }
}
layer {
  name: "relu_stage0_block2_branch2a"
  type: "ReLU"
  bottom: "conv_stage0_block2_branch2a"
  top: "conv_stage0_block2_branch2a"
}
layer {
  name: "conv_stage0_block2_branch_b_3by1"
  type: "Convolution"
  bottom: "conv_stage0_block2_branch2a"
  top: "conv_stage0_block2_branch_b_3by1"
  param {
    lr_mult: 1
    decay_mult: 1
  }
  param {
    lr_mult: 2
    decay_mult: 0
  }
  convolution_param {
    num_output: 32
    stride: 1
    weight_filler {
      type: "msra"
    }
    bias_filler {
      type: "constant"
      value: 0
    }
    pad_w: 1
    kernel_h: 1
    kernel_w: 3
  }
}
layer {
  name: "bn_stage0_block2_branch_b_3by1"
  type: "BatchNorm"
  bottom: "conv_stage0_block2_branch_b_3by1"
  top: "conv_stage0_block2_branch_b_3by1"
  param {
    lr_mult: 0
    decay_mult: 0
  }
  param {
    lr_mult: 0
    decay_mult: 0
  }
  param {
    lr_mult: 0
    decay_mult: 0
  }
  batch_norm_param {
    use_global_stats: true
  }
}
layer {
  name: "scale_stage0_block2_branch_b_3by1"
  type: "Scale"
  bottom: "conv_stage0_block2_branch_b_3by1"
  top: "conv_stage0_block2_branch_b_3by1"
  scale_param {
    bias_term: true
  }
}
layer {
  name: "relu_stage0_block2_branch_b_3by1"
  type: "ReLU"
  bottom: "conv_stage0_block2_branch_b_3by1"
  top: "conv_stage0_block2_branch_b_3by1"
}
layer {
  name: "conv_stage0_block2_branch_b_1by3"
  type: "Convolution"
  bottom: "conv_stage0_block2_branch_b_3by1"
  top: "conv_stage0_block2_branch_b_1by3"
  param {
    lr_mult: 1
    decay_mult: 1
  }
  param {
    lr_mult: 2
    decay_mult: 0
  }
  convolution_param {
    num_output: 32
    stride: 1
    weight_filler {
      type: "msra"
    }
    bias_filler {
      type: "constant"
      value: 0
    }
    pad_h: 1
    kernel_h: 3
    kernel_w: 1
  }
}
layer {
  name: "bn_stage0_block2_branch_b_1by3"
  type: "BatchNorm"
  bottom: "conv_stage0_block2_branch_b_1by3"
  top: "conv_stage0_block2_branch_b_1by3"
  param {
    lr_mult: 0
    decay_mult: 0
  }
  param {
    lr_mult: 0
    decay_mult: 0
  }
  param {
    lr_mult: 0
    decay_mult: 0
  }
  batch_norm_param {
    use_global_stats: true
  }
}
layer {
  name: "scale_stage0_block2_branch_b_1by3"
  type: "Scale"
  bottom: "conv_stage0_block2_branch_b_1by3"
  top: "conv_stage0_block2_branch_b_1by3"
  scale_param {
    bias_term: true
  }
}
layer {
  name: "relu_stage0_block2_branch_b_1by3"
  type: "ReLU"
  bottom: "conv_stage0_block2_branch_b_1by3"
  top: "conv_stage0_block2_branch_b_1by3"
}
layer {
  name: "conv_stage0_block2_branch2c"
  type: "Convolution"
  bottom: "conv_stage0_block2_branch_b_1by3"
  top: "conv_stage0_block2_branch2c"
  param {
    lr_mult: 1
    decay_mult: 1
  }
  param {
    lr_mult: 2
    decay_mult: 0
  }
  convolution_param {
    num_output: 128
    pad: 0
    kernel_size: 1
    stride: 1
    weight_filler {
      type: "msra"
    }
    bias_filler {
      type: "constant"
      value: 0
    }
  }
}
layer {
  name: "bn_stage0_block2_branch2c"
  type: "BatchNorm"
  bottom: "conv_stage0_block2_branch2c"
  top: "conv_stage0_block2_branch2c"
  param {
    lr_mult: 0
    decay_mult: 0
  }
  param {
    lr_mult: 0
    decay_mult: 0
  }
  param {
    lr_mult: 0
    decay_mult: 0
  }
  batch_norm_param {
    use_global_stats: true
  }
}
layer {
  name: "scale_stage0_block2_branch2c"
  type: "Scale"
  bottom: "conv_stage0_block2_branch2c"
  top: "conv_stage0_block2_branch2c"
  scale_param {
    bias_term: true
  }
}
layer {
  name: "eltwise_stage0_block2"
  type: "Eltwise"
  bottom: "eltwise_stage0_block1"
  bottom: "conv_stage0_block2_branch2c"
  top: "eltwise_stage0_block2"
}
layer {
  name: "relu_stage0_block2"
  type: "ReLU"
  bottom: "eltwise_stage0_block2"
  top: "eltwise_stage0_block2"
}
layer {
  name: "conv_stage1_block0_proj_shortcut"
  type: "Convolution"
  bottom: "eltwise_stage0_block2"
  top: "conv_stage1_block0_proj_shortcut"
  param {
    lr_mult: 1
    decay_mult: 1
  }
  param {
    lr_mult: 2
    decay_mult: 0
  }
  convolution_param {
    num_output: 256
    pad: 0
    kernel_size: 1
    stride: 2
    weight_filler {
      type: "msra"
    }
    bias_filler {
      type: "constant"
      value: 0
    }
  }
}
layer {
  name: "bn_stage1_block0_proj_shortcut"
  type: "BatchNorm"
  bottom: "conv_stage1_block0_proj_shortcut"
  top: "conv_stage1_block0_proj_shortcut"
  param {
    lr_mult: 0
    decay_mult: 0
  }
  param {
    lr_mult: 0
    decay_mult: 0
  }
  param {
    lr_mult: 0
    decay_mult: 0
  }
  batch_norm_param {
    use_global_stats: true
  }
}
layer {
  name: "scale_stage1_block0_proj_shortcut"
  type: "Scale"
  bottom: "conv_stage1_block0_proj_shortcut"
  top: "conv_stage1_block0_proj_shortcut"
  scale_param {
    bias_term: true
  }
}
layer {
  name: "conv_stage1_block0_branch2a"
  type: "Convolution"
  bottom: "eltwise_stage0_block2"
  top: "conv_stage1_block0_branch2a"
  param {
    lr_mult: 1
    decay_mult: 1
  }
  param {
    lr_mult: 2
    decay_mult: 0
  }
  convolution_param {
    num_output: 64
    pad: 0
    kernel_size: 1
    stride: 2
    weight_filler {
      type: "msra"
    }
    bias_filler {
      type: "constant"
      value: 0
    }
  }
}
layer {
  name: "bn_stage1_block0_branch2a"
  type: "BatchNorm"
  bottom: "conv_stage1_block0_branch2a"
  top: "conv_stage1_block0_branch2a"
  param {
    lr_mult: 0
    decay_mult: 0
  }
  param {
    lr_mult: 0
    decay_mult: 0
  }
  param {
    lr_mult: 0
    decay_mult: 0
  }
  batch_norm_param {
    use_global_stats: true
  }
}
layer {
  name: "scale_stage1_block0_branch2a"
  type: "Scale"
  bottom: "conv_stage1_block0_branch2a"
  top: "conv_stage1_block0_branch2a"
  scale_param {
    bias_term: true
  }
}
layer {
  name: "relu_stage1_block0_branch2a"
  type: "ReLU"
  bottom: "conv_stage1_block0_branch2a"
  top: "conv_stage1_block0_branch2a"
}
layer {
  name: "conv_stage1_block0_branch_b_3by1"
  type: "Convolution"
  bottom: "conv_stage1_block0_branch2a"
  top: "conv_stage1_block0_branch_b_3by1"
  param {
    lr_mult: 1
    decay_mult: 1
  }
  param {
    lr_mult: 2
    decay_mult: 0
  }
  convolution_param {
    num_output: 64
    stride: 1
    weight_filler {
      type: "msra"
    }
    bias_filler {
      type: "constant"
      value: 0
    }
    pad_w: 1
    kernel_h: 1
    kernel_w: 3
  }
}
layer {
  name: "bn_stage1_block0_branch_b_3by1"
  type: "BatchNorm"
  bottom: "conv_stage1_block0_branch_b_3by1"
  top: "conv_stage1_block0_branch_b_3by1"
  param {
    lr_mult: 0
    decay_mult: 0
  }
  param {
    lr_mult: 0
    decay_mult: 0
  }
  param {
    lr_mult: 0
    decay_mult: 0
  }
  batch_norm_param {
    use_global_stats: true
  }
}
layer {
  name: "scale_stage1_block0_branch_b_3by1"
  type: "Scale"
  bottom: "conv_stage1_block0_branch_b_3by1"
  top: "conv_stage1_block0_branch_b_3by1"
  scale_param {
    bias_term: true
  }
}
layer {
  name: "relu_stage1_block0_branch_b_3by1"
  type: "ReLU"
  bottom: "conv_stage1_block0_branch_b_3by1"
  top: "conv_stage1_block0_branch_b_3by1"
}
layer {
  name: "conv_stage1_block0_branch_b_1by3"
  type: "Convolution"
  bottom: "conv_stage1_block0_branch_b_3by1"
  top: "conv_stage1_block0_branch_b_1by3"
  param {
    lr_mult: 1
    decay_mult: 1
  }
  param {
    lr_mult: 2
    decay_mult: 0
  }
  convolution_param {
    num_output: 64
    stride: 1
    weight_filler {
      type: "msra"
    }
    bias_filler {
      type: "constant"
      value: 0
    }
    pad_h: 1
    kernel_h: 3
    kernel_w: 1
  }
}
layer {
  name: "bn_stage1_block0_branch_b_1by3"
  type: "BatchNorm"
  bottom: "conv_stage1_block0_branch_b_1by3"
  top: "conv_stage1_block0_branch_b_1by3"
  param {
    lr_mult: 0
    decay_mult: 0
  }
  param {
    lr_mult: 0
    decay_mult: 0
  }
  param {
    lr_mult: 0
    decay_mult: 0
  }
  batch_norm_param {
    use_global_stats: true
  }
}
layer {
  name: "scale_stage1_block0_branch_b_1by3"
  type: "Scale"
  bottom: "conv_stage1_block0_branch_b_1by3"
  top: "conv_stage1_block0_branch_b_1by3"
  scale_param {
    bias_term: true
  }
}
layer {
  name: "relu_stage1_block0_branch_b_1by3"
  type: "ReLU"
  bottom: "conv_stage1_block0_branch_b_1by3"
  top: "conv_stage1_block0_branch_b_1by3"
}
layer {
  name: "conv_stage1_block0_branch2c"
  type: "Convolution"
  bottom: "conv_stage1_block0_branch_b_1by3"
  top: "conv_stage1_block0_branch2c"
  param {
    lr_mult: 1
    decay_mult: 1
  }
  param {
    lr_mult: 2
    decay_mult: 0
  }
  convolution_param {
    num_output: 256
    pad: 0
    kernel_size: 1
    stride: 1
    weight_filler {
      type: "msra"
    }
    bias_filler {
      type: "constant"
      value: 0
    }
  }
}
layer {
  name: "bn_stage1_block0_branch2c"
  type: "BatchNorm"
  bottom: "conv_stage1_block0_branch2c"
  top: "conv_stage1_block0_branch2c"
  param {
    lr_mult: 0
    decay_mult: 0
  }
  param {
    lr_mult: 0
    decay_mult: 0
  }
  param {
    lr_mult: 0
    decay_mult: 0
  }
  batch_norm_param {
    use_global_stats: true
  }
}
layer {
  name: "scale_stage1_block0_branch2c"
  type: "Scale"
  bottom: "conv_stage1_block0_branch2c"
  top: "conv_stage1_block0_branch2c"
  scale_param {
    bias_term: true
  }
}
layer {
  name: "eltwise_stage1_block0"
  type: "Eltwise"
  bottom: "conv_stage1_block0_proj_shortcut"
  bottom: "conv_stage1_block0_branch2c"
  top: "eltwise_stage1_block0"
}
layer {
  name: "relu_stage1_block0"
  type: "ReLU"
  bottom: "eltwise_stage1_block0"
  top: "eltwise_stage1_block0"
}
layer {
  name: "conv_stage1_block1_branch2a"
  type: "Convolution"
  bottom: "eltwise_stage1_block0"
  top: "conv_stage1_block1_branch2a"
  param {
    lr_mult: 1
    decay_mult: 1
  }
  param {
    lr_mult: 2
    decay_mult: 0
  }
  convolution_param {
    num_output: 64
    pad: 0
    kernel_size: 1
    stride: 1
    weight_filler {
      type: "msra"
    }
    bias_filler {
      type: "constant"
      value: 0
    }
  }
}
layer {
  name: "bn_stage1_block1_branch2a"
  type: "BatchNorm"
  bottom: "conv_stage1_block1_branch2a"
  top: "conv_stage1_block1_branch2a"
  param {
    lr_mult: 0
    decay_mult: 0
  }
  param {
    lr_mult: 0
    decay_mult: 0
  }
  param {
    lr_mult: 0
    decay_mult: 0
  }
  batch_norm_param {
    use_global_stats: true
  }
}
layer {
  name: "scale_stage1_block1_branch2a"
  type: "Scale"
  bottom: "conv_stage1_block1_branch2a"
  top: "conv_stage1_block1_branch2a"
  scale_param {
    bias_term: true
  }
}
layer {
  name: "relu_stage1_block1_branch2a"
  type: "ReLU"
  bottom: "conv_stage1_block1_branch2a"
  top: "conv_stage1_block1_branch2a"
}
layer {
  name: "conv_stage1_block1_branch_b_3by1"
  type: "Convolution"
  bottom: "conv_stage1_block1_branch2a"
  top: "conv_stage1_block1_branch_b_3by1"
  param {
    lr_mult: 1
    decay_mult: 1
  }
  param {
    lr_mult: 2
    decay_mult: 0
  }
  convolution_param {
    num_output: 64
    stride: 1
    weight_filler {
      type: "msra"
    }
    bias_filler {
      type: "constant"
      value: 0
    }
    pad_w: 1
    kernel_h: 1
    kernel_w: 3
  }
}
layer {
  name: "bn_stage1_block1_branch_b_3by1"
  type: "BatchNorm"
  bottom: "conv_stage1_block1_branch_b_3by1"
  top: "conv_stage1_block1_branch_b_3by1"
  param {
    lr_mult: 0
    decay_mult: 0
  }
  param {
    lr_mult: 0
    decay_mult: 0
  }
  param {
    lr_mult: 0
    decay_mult: 0
  }
  batch_norm_param {
    use_global_stats: true
  }
}
layer {
  name: "scale_stage1_block1_branch_b_3by1"
  type: "Scale"
  bottom: "conv_stage1_block1_branch_b_3by1"
  top: "conv_stage1_block1_branch_b_3by1"
  scale_param {
    bias_term: true
  }
}
layer {
  name: "relu_stage1_block1_branch_b_3by1"
  type: "ReLU"
  bottom: "conv_stage1_block1_branch_b_3by1"
  top: "conv_stage1_block1_branch_b_3by1"
}
layer {
  name: "conv_stage1_block1_branch_b_1by3"
  type: "Convolution"
  bottom: "conv_stage1_block1_branch_b_3by1"
  top: "conv_stage1_block1_branch_b_1by3"
  param {
    lr_mult: 1
    decay_mult: 1
  }
  param {
    lr_mult: 2
    decay_mult: 0
  }
  convolution_param {
    num_output: 64
    stride: 1
    weight_filler {
      type: "msra"
    }
    bias_filler {
      type: "constant"
      value: 0
    }
    pad_h: 1
    kernel_h: 3
    kernel_w: 1
  }
}
layer {
  name: "bn_stage1_block1_branch_b_1by3"
  type: "BatchNorm"
  bottom: "conv_stage1_block1_branch_b_1by3"
  top: "conv_stage1_block1_branch_b_1by3"
  param {
    lr_mult: 0
    decay_mult: 0
  }
  param {
    lr_mult: 0
    decay_mult: 0
  }
  param {
    lr_mult: 0
    decay_mult: 0
  }
  batch_norm_param {
    use_global_stats: true
  }
}
layer {
  name: "scale_stage1_block1_branch_b_1by3"
  type: "Scale"
  bottom: "conv_stage1_block1_branch_b_1by3"
  top: "conv_stage1_block1_branch_b_1by3"
  scale_param {
    bias_term: true
  }
}
layer {
  name: "relu_stage1_block1_branch_b_1by3"
  type: "ReLU"
  bottom: "conv_stage1_block1_branch_b_1by3"
  top: "conv_stage1_block1_branch_b_1by3"
}
layer {
  name: "conv_stage1_block1_branch2c"
  type: "Convolution"
  bottom: "conv_stage1_block1_branch_b_1by3"
  top: "conv_stage1_block1_branch2c"
  param {
    lr_mult: 1
    decay_mult: 1
  }
  param {
    lr_mult: 2
    decay_mult: 0
  }
  convolution_param {
    num_output: 256
    pad: 0
    kernel_size: 1
    stride: 1
    weight_filler {
      type: "msra"
    }
    bias_filler {
      type: "constant"
      value: 0
    }
  }
}
layer {
  name: "bn_stage1_block1_branch2c"
  type: "BatchNorm"
  bottom: "conv_stage1_block1_branch2c"
  top: "conv_stage1_block1_branch2c"
  param {
    lr_mult: 0
    decay_mult: 0
  }
  param {
    lr_mult: 0
    decay_mult: 0
  }
  param {
    lr_mult: 0
    decay_mult: 0
  }
  batch_norm_param {
    use_global_stats: true
  }
}
layer {
  name: "scale_stage1_block1_branch2c"
  type: "Scale"
  bottom: "conv_stage1_block1_branch2c"
  top: "conv_stage1_block1_branch2c"
  scale_param {
    bias_term: true
  }
}
layer {
  name: "eltwise_stage1_block1"
  type: "Eltwise"
  bottom: "eltwise_stage1_block0"
  bottom: "conv_stage1_block1_branch2c"
  top: "eltwise_stage1_block1"
}
layer {
  name: "relu_stage1_block1"
  type: "ReLU"
  bottom: "eltwise_stage1_block1"
  top: "eltwise_stage1_block1"
}
layer {
  name: "conv_stage1_block2_branch2a"
  type: "Convolution"
  bottom: "eltwise_stage1_block1"
  top: "conv_stage1_block2_branch2a"
  param {
    lr_mult: 1
    decay_mult: 1
  }
  param {
    lr_mult: 2
    decay_mult: 0
  }
  convolution_param {
    num_output: 64
    pad: 0
    kernel_size: 1
    stride: 1
    weight_filler {
      type: "msra"
    }
    bias_filler {
      type: "constant"
      value: 0
    }
  }
}
layer {
  name: "bn_stage1_block2_branch2a"
  type: "BatchNorm"
  bottom: "conv_stage1_block2_branch2a"
  top: "conv_stage1_block2_branch2a"
  param {
    lr_mult: 0
    decay_mult: 0
  }
  param {
    lr_mult: 0
    decay_mult: 0
  }
  param {
    lr_mult: 0
    decay_mult: 0
  }
  batch_norm_param {
    use_global_stats: true
  }
}
layer {
  name: "scale_stage1_block2_branch2a"
  type: "Scale"
  bottom: "conv_stage1_block2_branch2a"
  top: "conv_stage1_block2_branch2a"
  scale_param {
    bias_term: true
  }
}
layer {
  name: "relu_stage1_block2_branch2a"
  type: "ReLU"
  bottom: "conv_stage1_block2_branch2a"
  top: "conv_stage1_block2_branch2a"
}
layer {
  name: "conv_stage1_block2_branch_b_3by1"
  type: "Convolution"
  bottom: "conv_stage1_block2_branch2a"
  top: "conv_stage1_block2_branch_b_3by1"
  param {
    lr_mult: 1
    decay_mult: 1
  }
  param {
    lr_mult: 2
    decay_mult: 0
  }
  convolution_param {
    num_output: 64
    stride: 1
    weight_filler {
      type: "msra"
    }
    bias_filler {
      type: "constant"
      value: 0
    }
    pad_w: 1
    kernel_h: 1
    kernel_w: 3
  }
}
layer {
  name: "bn_stage1_block2_branch_b_3by1"
  type: "BatchNorm"
  bottom: "conv_stage1_block2_branch_b_3by1"
  top: "conv_stage1_block2_branch_b_3by1"
  param {
    lr_mult: 0
    decay_mult: 0
  }
  param {
    lr_mult: 0
    decay_mult: 0
  }
  param {
    lr_mult: 0
    decay_mult: 0
  }
  batch_norm_param {
    use_global_stats: true
  }
}
layer {
  name: "scale_stage1_block2_branch_b_3by1"
  type: "Scale"
  bottom: "conv_stage1_block2_branch_b_3by1"
  top: "conv_stage1_block2_branch_b_3by1"
  scale_param {
    bias_term: true
  }
}
layer {
  name: "relu_stage1_block2_branch_b_3by1"
  type: "ReLU"
  bottom: "conv_stage1_block2_branch_b_3by1"
  top: "conv_stage1_block2_branch_b_3by1"
}
layer {
  name: "conv_stage1_block2_branch_b_1by3"
  type: "Convolution"
  bottom: "conv_stage1_block2_branch_b_3by1"
  top: "conv_stage1_block2_branch_b_1by3"
  param {
    lr_mult: 1
    decay_mult: 1
  }
  param {
    lr_mult: 2
    decay_mult: 0
  }
  convolution_param {
    num_output: 64
    stride: 1
    weight_filler {
      type: "msra"
    }
    bias_filler {
      type: "constant"
      value: 0
    }
    pad_h: 1
    kernel_h: 3
    kernel_w: 1
  }
}
layer {
  name: "bn_stage1_block2_branch_b_1by3"
  type: "BatchNorm"
  bottom: "conv_stage1_block2_branch_b_1by3"
  top: "conv_stage1_block2_branch_b_1by3"
  param {
    lr_mult: 0
    decay_mult: 0
  }
  param {
    lr_mult: 0
    decay_mult: 0
  }
  param {
    lr_mult: 0
    decay_mult: 0
  }
  batch_norm_param {
    use_global_stats: true
  }
}
layer {
  name: "scale_stage1_block2_branch_b_1by3"
  type: "Scale"
  bottom: "conv_stage1_block2_branch_b_1by3"
  top: "conv_stage1_block2_branch_b_1by3"
  scale_param {
    bias_term: true
  }
}
layer {
  name: "relu_stage1_block2_branch_b_1by3"
  type: "ReLU"
  bottom: "conv_stage1_block2_branch_b_1by3"
  top: "conv_stage1_block2_branch_b_1by3"
}
layer {
  name: "conv_stage1_block2_branch2c"
  type: "Convolution"
  bottom: "conv_stage1_block2_branch_b_1by3"
  top: "conv_stage1_block2_branch2c"
  param {
    lr_mult: 1
    decay_mult: 1
  }
  param {
    lr_mult: 2
    decay_mult: 0
  }
  convolution_param {
    num_output: 256
    pad: 0
    kernel_size: 1
    stride: 1
    weight_filler {
      type: "msra"
    }
    bias_filler {
      type: "constant"
      value: 0
    }
  }
}
layer {
  name: "bn_stage1_block2_branch2c"
  type: "BatchNorm"
  bottom: "conv_stage1_block2_branch2c"
  top: "conv_stage1_block2_branch2c"
  param {
    lr_mult: 0
    decay_mult: 0
  }
  param {
    lr_mult: 0
    decay_mult: 0
  }
  param {
    lr_mult: 0
    decay_mult: 0
  }
  batch_norm_param {
    use_global_stats: true
  }
}
layer {
  name: "scale_stage1_block2_branch2c"
  type: "Scale"
  bottom: "conv_stage1_block2_branch2c"
  top: "conv_stage1_block2_branch2c"
  scale_param {
    bias_term: true
  }
}
layer {
  name: "eltwise_stage1_block2"
  type: "Eltwise"
  bottom: "eltwise_stage1_block1"
  bottom: "conv_stage1_block2_branch2c"
  top: "eltwise_stage1_block2"
}
layer {
  name: "relu_stage1_block2"
  type: "ReLU"
  bottom: "eltwise_stage1_block2"
  top: "eltwise_stage1_block2"
}
layer {
  name: "conv_stage1_block3_branch2a"
  type: "Convolution"
  bottom: "eltwise_stage1_block2"
  top: "conv_stage1_block3_branch2a"
  param {
    lr_mult: 1
    decay_mult: 1
  }
  param {
    lr_mult: 2
    decay_mult: 0
  }
  convolution_param {
    num_output: 64
    pad: 0
    kernel_size: 1
    stride: 1
    weight_filler {
      type: "msra"
    }
    bias_filler {
      type: "constant"
      value: 0
    }
  }
}
layer {
  name: "bn_stage1_block3_branch2a"
  type: "BatchNorm"
  bottom: "conv_stage1_block3_branch2a"
  top: "conv_stage1_block3_branch2a"
  param {
    lr_mult: 0
    decay_mult: 0
  }
  param {
    lr_mult: 0
    decay_mult: 0
  }
  param {
    lr_mult: 0
    decay_mult: 0
  }
  batch_norm_param {
    use_global_stats: true
  }
}
layer {
  name: "scale_stage1_block3_branch2a"
  type: "Scale"
  bottom: "conv_stage1_block3_branch2a"
  top: "conv_stage1_block3_branch2a"
  scale_param {
    bias_term: true
  }
}
layer {
  name: "relu_stage1_block3_branch2a"
  type: "ReLU"
  bottom: "conv_stage1_block3_branch2a"
  top: "conv_stage1_block3_branch2a"
}
layer {
  name: "conv_stage1_block3_branch_b_3by1"
  type: "Convolution"
  bottom: "conv_stage1_block3_branch2a"
  top: "conv_stage1_block3_branch_b_3by1"
  param {
    lr_mult: 1
    decay_mult: 1
  }
  param {
    lr_mult: 2
    decay_mult: 0
  }
  convolution_param {
    num_output: 64
    stride: 1
    weight_filler {
      type: "msra"
    }
    bias_filler {
      type: "constant"
      value: 0
    }
    pad_w: 1
    kernel_h: 1
    kernel_w: 3
  }
}
layer {
  name: "bn_stage1_block3_branch_b_3by1"
  type: "BatchNorm"
  bottom: "conv_stage1_block3_branch_b_3by1"
  top: "conv_stage1_block3_branch_b_3by1"
  param {
    lr_mult: 0
    decay_mult: 0
  }
  param {
    lr_mult: 0
    decay_mult: 0
  }
  param {
    lr_mult: 0
    decay_mult: 0
  }
  batch_norm_param {
    use_global_stats: true
  }
}
layer {
  name: "scale_stage1_block3_branch_b_3by1"
  type: "Scale"
  bottom: "conv_stage1_block3_branch_b_3by1"
  top: "conv_stage1_block3_branch_b_3by1"
  scale_param {
    bias_term: true
  }
}
layer {
  name: "relu_stage1_block3_branch_b_3by1"
  type: "ReLU"
  bottom: "conv_stage1_block3_branch_b_3by1"
  top: "conv_stage1_block3_branch_b_3by1"
}
layer {
  name: "conv_stage1_block3_branch_b_1by3"
  type: "Convolution"
  bottom: "conv_stage1_block3_branch_b_3by1"
  top: "conv_stage1_block3_branch_b_1by3"
  param {
    lr_mult: 1
    decay_mult: 1
  }
  param {
    lr_mult: 2
    decay_mult: 0
  }
  convolution_param {
    num_output: 64
    stride: 1
    weight_filler {
      type: "msra"
    }
    bias_filler {
      type: "constant"
      value: 0
    }
    pad_h: 1
    kernel_h: 3
    kernel_w: 1
  }
}
layer {
  name: "bn_stage1_block3_branch_b_1by3"
  type: "BatchNorm"
  bottom: "conv_stage1_block3_branch_b_1by3"
  top: "conv_stage1_block3_branch_b_1by3"
  param {
    lr_mult: 0
    decay_mult: 0
  }
  param {
    lr_mult: 0
    decay_mult: 0
  }
  param {
    lr_mult: 0
    decay_mult: 0
  }
  batch_norm_param {
    use_global_stats: true
  }
}
layer {
  name: "scale_stage1_block3_branch_b_1by3"
  type: "Scale"
  bottom: "conv_stage1_block3_branch_b_1by3"
  top: "conv_stage1_block3_branch_b_1by3"
  scale_param {
    bias_term: true
  }
}
layer {
  name: "relu_stage1_block3_branch_b_1by3"
  type: "ReLU"
  bottom: "conv_stage1_block3_branch_b_1by3"
  top: "conv_stage1_block3_branch_b_1by3"
}
layer {
  name: "conv_stage1_block3_branch2c"
  type: "Convolution"
  bottom: "conv_stage1_block3_branch_b_1by3"
  top: "conv_stage1_block3_branch2c"
  param {
    lr_mult: 1
    decay_mult: 1
  }
  param {
    lr_mult: 2
    decay_mult: 0
  }
  convolution_param {
    num_output: 256
    pad: 0
    kernel_size: 1
    stride: 1
    weight_filler {
      type: "msra"
    }
    bias_filler {
      type: "constant"
      value: 0
    }
  }
}
layer {
  name: "bn_stage1_block3_branch2c"
  type: "BatchNorm"
  bottom: "conv_stage1_block3_branch2c"
  top: "conv_stage1_block3_branch2c"
  param {
    lr_mult: 0
    decay_mult: 0
  }
  param {
    lr_mult: 0
    decay_mult: 0
  }
  param {
    lr_mult: 0
    decay_mult: 0
  }
  batch_norm_param {
    use_global_stats: true
  }
}
layer {
  name: "scale_stage1_block3_branch2c"
  type: "Scale"
  bottom: "conv_stage1_block3_branch2c"
  top: "conv_stage1_block3_branch2c"
  scale_param {
    bias_term: true
  }
}
layer {
  name: "eltwise_stage1_block3"
  type: "Eltwise"
  bottom: "eltwise_stage1_block2"
  bottom: "conv_stage1_block3_branch2c"
  top: "eltwise_stage1_block3"
}
layer {
  name: "relu_stage1_block3"
  type: "ReLU"
  bottom: "eltwise_stage1_block3"
  top: "eltwise_stage1_block3"
}
layer {
  name: "conv_stage2_block0_proj_shortcut"
  type: "Convolution"
  bottom: "eltwise_stage1_block3"
  top: "conv_stage2_block0_proj_shortcut"
  param {
    lr_mult: 1
    decay_mult: 1
  }
  param {
    lr_mult: 2
    decay_mult: 0
  }
  convolution_param {
    num_output: 512
    pad: 0
    kernel_size: 1
    stride: 2
    weight_filler {
      type: "msra"
    }
    bias_filler {
      type: "constant"
      value: 0
    }
  }
}
layer {
  name: "bn_stage2_block0_proj_shortcut"
  type: "BatchNorm"
  bottom: "conv_stage2_block0_proj_shortcut"
  top: "conv_stage2_block0_proj_shortcut"
  param {
    lr_mult: 0
    decay_mult: 0
  }
  param {
    lr_mult: 0
    decay_mult: 0
  }
  param {
    lr_mult: 0
    decay_mult: 0
  }
  batch_norm_param {
    use_global_stats: true
  }
}
layer {
  name: "scale_stage2_block0_proj_shortcut"
  type: "Scale"
  bottom: "conv_stage2_block0_proj_shortcut"
  top: "conv_stage2_block0_proj_shortcut"
  scale_param {
    bias_term: true
  }
}
layer {
  name: "conv_stage2_block0_branch2a"
  type: "Convolution"
  bottom: "eltwise_stage1_block3"
  top: "conv_stage2_block0_branch2a"
  param {
    lr_mult: 1
    decay_mult: 1
  }
  param {
    lr_mult: 2
    decay_mult: 0
  }
  convolution_param {
    num_output: 128
    pad: 0
    kernel_size: 1
    stride: 2
    weight_filler {
      type: "msra"
    }
    bias_filler {
      type: "constant"
      value: 0
    }
  }
}
layer {
  name: "bn_stage2_block0_branch2a"
  type: "BatchNorm"
  bottom: "conv_stage2_block0_branch2a"
  top: "conv_stage2_block0_branch2a"
  param {
    lr_mult: 0
    decay_mult: 0
  }
  param {
    lr_mult: 0
    decay_mult: 0
  }
  param {
    lr_mult: 0
    decay_mult: 0
  }
  batch_norm_param {
    use_global_stats: true
  }
}
layer {
  name: "scale_stage2_block0_branch2a"
  type: "Scale"
  bottom: "conv_stage2_block0_branch2a"
  top: "conv_stage2_block0_branch2a"
  scale_param {
    bias_term: true
  }
}
layer {
  name: "relu_stage2_block0_branch2a"
  type: "ReLU"
  bottom: "conv_stage2_block0_branch2a"
  top: "conv_stage2_block0_branch2a"
}
layer {
  name: "conv_stage2_block0_branch_b_3by1"
  type: "Convolution"
  bottom: "conv_stage2_block0_branch2a"
  top: "conv_stage2_block0_branch_b_3by1"
  param {
    lr_mult: 1
    decay_mult: 1
  }
  param {
    lr_mult: 2
    decay_mult: 0
  }
  convolution_param {
    num_output: 128
    stride: 1
    weight_filler {
      type: "msra"
    }
    bias_filler {
      type: "constant"
      value: 0
    }
    pad_w: 1
    kernel_h: 1
    kernel_w: 3
  }
}
layer {
  name: "bn_stage2_block0_branch_b_3by1"
  type: "BatchNorm"
  bottom: "conv_stage2_block0_branch_b_3by1"
  top: "conv_stage2_block0_branch_b_3by1"
  param {
    lr_mult: 0
    decay_mult: 0
  }
  param {
    lr_mult: 0
    decay_mult: 0
  }
  param {
    lr_mult: 0
    decay_mult: 0
  }
  batch_norm_param {
    use_global_stats: true
  }
}
layer {
  name: "scale_stage2_block0_branch_b_3by1"
  type: "Scale"
  bottom: "conv_stage2_block0_branch_b_3by1"
  top: "conv_stage2_block0_branch_b_3by1"
  scale_param {
    bias_term: true
  }
}
layer {
  name: "relu_stage2_block0_branch_b_3by1"
  type: "ReLU"
  bottom: "conv_stage2_block0_branch_b_3by1"
  top: "conv_stage2_block0_branch_b_3by1"
}
layer {
  name: "conv_stage2_block0_branch_b_1by3"
  type: "Convolution"
  bottom: "conv_stage2_block0_branch_b_3by1"
  top: "conv_stage2_block0_branch_b_1by3"
  param {
    lr_mult: 1
    decay_mult: 1
  }
  param {
    lr_mult: 2
    decay_mult: 0
  }
  convolution_param {
    num_output: 128
    stride: 1
    weight_filler {
      type: "msra"
    }
    bias_filler {
      type: "constant"
      value: 0
    }
    pad_h: 1
    kernel_h: 3
    kernel_w: 1
  }
}
layer {
  name: "bn_stage2_block0_branch_b_1by3"
  type: "BatchNorm"
  bottom: "conv_stage2_block0_branch_b_1by3"
  top: "conv_stage2_block0_branch_b_1by3"
  param {
    lr_mult: 0
    decay_mult: 0
  }
  param {
    lr_mult: 0
    decay_mult: 0
  }
  param {
    lr_mult: 0
    decay_mult: 0
  }
  batch_norm_param {
    use_global_stats: true
  }
}
layer {
  name: "scale_stage2_block0_branch_b_1by3"
  type: "Scale"
  bottom: "conv_stage2_block0_branch_b_1by3"
  top: "conv_stage2_block0_branch_b_1by3"
  scale_param {
    bias_term: true
  }
}
layer {
  name: "relu_stage2_block0_branch_b_1by3"
  type: "ReLU"
  bottom: "conv_stage2_block0_branch_b_1by3"
  top: "conv_stage2_block0_branch_b_1by3"
}
layer {
  name: "conv_stage2_block0_branch2c"
  type: "Convolution"
  bottom: "conv_stage2_block0_branch_b_1by3"
  top: "conv_stage2_block0_branch2c"
  param {
    lr_mult: 1
    decay_mult: 1
  }
  param {
    lr_mult: 2
    decay_mult: 0
  }
  convolution_param {
    num_output: 512
    pad: 0
    kernel_size: 1
    stride: 1
    weight_filler {
      type: "msra"
    }
    bias_filler {
      type: "constant"
      value: 0
    }
  }
}
layer {
  name: "bn_stage2_block0_branch2c"
  type: "BatchNorm"
  bottom: "conv_stage2_block0_branch2c"
  top: "conv_stage2_block0_branch2c"
  param {
    lr_mult: 0
    decay_mult: 0
  }
  param {
    lr_mult: 0
    decay_mult: 0
  }
  param {
    lr_mult: 0
    decay_mult: 0
  }
  batch_norm_param {
    use_global_stats: true
  }
}
layer {
  name: "scale_stage2_block0_branch2c"
  type: "Scale"
  bottom: "conv_stage2_block0_branch2c"
  top: "conv_stage2_block0_branch2c"
  scale_param {
    bias_term: true
  }
}
layer {
  name: "eltwise_stage2_block0"
  type: "Eltwise"
  bottom: "conv_stage2_block0_proj_shortcut"
  bottom: "conv_stage2_block0_branch2c"
  top: "eltwise_stage2_block0"
}
layer {
  name: "relu_stage2_block0"
  type: "ReLU"
  bottom: "eltwise_stage2_block0"
  top: "eltwise_stage2_block0"
}
layer {
  name: "conv_stage2_block1_branch2a"
  type: "Convolution"
  bottom: "eltwise_stage2_block0"
  top: "conv_stage2_block1_branch2a"
  param {
    lr_mult: 1
    decay_mult: 1
  }
  param {
    lr_mult: 2
    decay_mult: 0
  }
  convolution_param {
    num_output: 128
    pad: 0
    kernel_size: 1
    stride: 1
    weight_filler {
      type: "msra"
    }
    bias_filler {
      type: "constant"
      value: 0
    }
  }
}
layer {
  name: "bn_stage2_block1_branch2a"
  type: "BatchNorm"
  bottom: "conv_stage2_block1_branch2a"
  top: "conv_stage2_block1_branch2a"
  param {
    lr_mult: 0
    decay_mult: 0
  }
  param {
    lr_mult: 0
    decay_mult: 0
  }
  param {
    lr_mult: 0
    decay_mult: 0
  }
  batch_norm_param {
    use_global_stats: true
  }
}
layer {
  name: "scale_stage2_block1_branch2a"
  type: "Scale"
  bottom: "conv_stage2_block1_branch2a"
  top: "conv_stage2_block1_branch2a"
  scale_param {
    bias_term: true
  }
}
layer {
  name: "relu_stage2_block1_branch2a"
  type: "ReLU"
  bottom: "conv_stage2_block1_branch2a"
  top: "conv_stage2_block1_branch2a"
}
layer {
  name: "conv_stage2_block1_branch_b_3by1"
  type: "Convolution"
  bottom: "conv_stage2_block1_branch2a"
  top: "conv_stage2_block1_branch_b_3by1"
  param {
    lr_mult: 1
    decay_mult: 1
  }
  param {
    lr_mult: 2
    decay_mult: 0
  }
  convolution_param {
    num_output: 128
    stride: 1
    weight_filler {
      type: "msra"
    }
    bias_filler {
      type: "constant"
      value: 0
    }
    pad_w: 1
    kernel_h: 1
    kernel_w: 3
  }
}
layer {
  name: "bn_stage2_block1_branch_b_3by1"
  type: "BatchNorm"
  bottom: "conv_stage2_block1_branch_b_3by1"
  top: "conv_stage2_block1_branch_b_3by1"
  param {
    lr_mult: 0
    decay_mult: 0
  }
  param {
    lr_mult: 0
    decay_mult: 0
  }
  param {
    lr_mult: 0
    decay_mult: 0
  }
  batch_norm_param {
    use_global_stats: true
  }
}
layer {
  name: "scale_stage2_block1_branch_b_3by1"
  type: "Scale"
  bottom: "conv_stage2_block1_branch_b_3by1"
  top: "conv_stage2_block1_branch_b_3by1"
  scale_param {
    bias_term: true
  }
}
layer {
  name: "relu_stage2_block1_branch_b_3by1"
  type: "ReLU"
  bottom: "conv_stage2_block1_branch_b_3by1"
  top: "conv_stage2_block1_branch_b_3by1"
}
layer {
  name: "conv_stage2_block1_branch_b_1by3"
  type: "Convolution"
  bottom: "conv_stage2_block1_branch_b_3by1"
  top: "conv_stage2_block1_branch_b_1by3"
  param {
    lr_mult: 1
    decay_mult: 1
  }
  param {
    lr_mult: 2
    decay_mult: 0
  }
  convolution_param {
    num_output: 128
    stride: 1
    weight_filler {
      type: "msra"
    }
    bias_filler {
      type: "constant"
      value: 0
    }
    pad_h: 1
    kernel_h: 3
    kernel_w: 1
  }
}
layer {
  name: "bn_stage2_block1_branch_b_1by3"
  type: "BatchNorm"
  bottom: "conv_stage2_block1_branch_b_1by3"
  top: "conv_stage2_block1_branch_b_1by3"
  param {
    lr_mult: 0
    decay_mult: 0
  }
  param {
    lr_mult: 0
    decay_mult: 0
  }
  param {
    lr_mult: 0
    decay_mult: 0
  }
  batch_norm_param {
    use_global_stats: true
  }
}
layer {
  name: "scale_stage2_block1_branch_b_1by3"
  type: "Scale"
  bottom: "conv_stage2_block1_branch_b_1by3"
  top: "conv_stage2_block1_branch_b_1by3"
  scale_param {
    bias_term: true
  }
}
layer {
  name: "relu_stage2_block1_branch_b_1by3"
  type: "ReLU"
  bottom: "conv_stage2_block1_branch_b_1by3"
  top: "conv_stage2_block1_branch_b_1by3"
}
layer {
  name: "conv_stage2_block1_branch2c"
  type: "Convolution"
  bottom: "conv_stage2_block1_branch_b_1by3"
  top: "conv_stage2_block1_branch2c"
  param {
    lr_mult: 1
    decay_mult: 1
  }
  param {
    lr_mult: 2
    decay_mult: 0
  }
  convolution_param {
    num_output: 512
    pad: 0
    kernel_size: 1
    stride: 1
    weight_filler {
      type: "msra"
    }
    bias_filler {
      type: "constant"
      value: 0
    }
  }
}
layer {
  name: "bn_stage2_block1_branch2c"
  type: "BatchNorm"
  bottom: "conv_stage2_block1_branch2c"
  top: "conv_stage2_block1_branch2c"
  param {
    lr_mult: 0
    decay_mult: 0
  }
  param {
    lr_mult: 0
    decay_mult: 0
  }
  param {
    lr_mult: 0
    decay_mult: 0
  }
  batch_norm_param {
    use_global_stats: true
  }
}
layer {
  name: "scale_stage2_block1_branch2c"
  type: "Scale"
  bottom: "conv_stage2_block1_branch2c"
  top: "conv_stage2_block1_branch2c"
  scale_param {
    bias_term: true
  }
}
layer {
  name: "eltwise_stage2_block1"
  type: "Eltwise"
  bottom: "eltwise_stage2_block0"
  bottom: "conv_stage2_block1_branch2c"
  top: "eltwise_stage2_block1"
}
layer {
  name: "relu_stage2_block1"
  type: "ReLU"
  bottom: "eltwise_stage2_block1"
  top: "eltwise_stage2_block1"
}
layer {
  name: "conv_stage2_block2_branch2a"
  type: "Convolution"
  bottom: "eltwise_stage2_block1"
  top: "conv_stage2_block2_branch2a"
  param {
    lr_mult: 1
    decay_mult: 1
  }
  param {
    lr_mult: 2
    decay_mult: 0
  }
  convolution_param {
    num_output: 128
    pad: 0
    kernel_size: 1
    stride: 1
    weight_filler {
      type: "msra"
    }
    bias_filler {
      type: "constant"
      value: 0
    }
  }
}
layer {
  name: "bn_stage2_block2_branch2a"
  type: "BatchNorm"
  bottom: "conv_stage2_block2_branch2a"
  top: "conv_stage2_block2_branch2a"
  param {
    lr_mult: 0
    decay_mult: 0
  }
  param {
    lr_mult: 0
    decay_mult: 0
  }
  param {
    lr_mult: 0
    decay_mult: 0
  }
  batch_norm_param {
    use_global_stats: true
  }
}
layer {
  name: "scale_stage2_block2_branch2a"
  type: "Scale"
  bottom: "conv_stage2_block2_branch2a"
  top: "conv_stage2_block2_branch2a"
  scale_param {
    bias_term: true
  }
}
layer {
  name: "relu_stage2_block2_branch2a"
  type: "ReLU"
  bottom: "conv_stage2_block2_branch2a"
  top: "conv_stage2_block2_branch2a"
}
layer {
  name: "conv_stage2_block2_branch_b_3by1"
  type: "Convolution"
  bottom: "conv_stage2_block2_branch2a"
  top: "conv_stage2_block2_branch_b_3by1"
  param {
    lr_mult: 1
    decay_mult: 1
  }
  param {
    lr_mult: 2
    decay_mult: 0
  }
  convolution_param {
    num_output: 128
    stride: 1
    weight_filler {
      type: "msra"
    }
    bias_filler {
      type: "constant"
      value: 0
    }
    pad_w: 1
    kernel_h: 1
    kernel_w: 3
  }
}
layer {
  name: "bn_stage2_block2_branch_b_3by1"
  type: "BatchNorm"
  bottom: "conv_stage2_block2_branch_b_3by1"
  top: "conv_stage2_block2_branch_b_3by1"
  param {
    lr_mult: 0
    decay_mult: 0
  }
  param {
    lr_mult: 0
    decay_mult: 0
  }
  param {
    lr_mult: 0
    decay_mult: 0
  }
  batch_norm_param {
    use_global_stats: true
  }
}
layer {
  name: "scale_stage2_block2_branch_b_3by1"
  type: "Scale"
  bottom: "conv_stage2_block2_branch_b_3by1"
  top: "conv_stage2_block2_branch_b_3by1"
  scale_param {
    bias_term: true
  }
}
layer {
  name: "relu_stage2_block2_branch_b_3by1"
  type: "ReLU"
  bottom: "conv_stage2_block2_branch_b_3by1"
  top: "conv_stage2_block2_branch_b_3by1"
}
layer {
  name: "conv_stage2_block2_branch_b_1by3"
  type: "Convolution"
  bottom: "conv_stage2_block2_branch_b_3by1"
  top: "conv_stage2_block2_branch_b_1by3"
  param {
    lr_mult: 1
    decay_mult: 1
  }
  param {
    lr_mult: 2
    decay_mult: 0
  }
  convolution_param {
    num_output: 128
    stride: 1
    weight_filler {
      type: "msra"
    }
    bias_filler {
      type: "constant"
      value: 0
    }
    pad_h: 1
    kernel_h: 3
    kernel_w: 1
  }
}
layer {
  name: "bn_stage2_block2_branch_b_1by3"
  type: "BatchNorm"
  bottom: "conv_stage2_block2_branch_b_1by3"
  top: "conv_stage2_block2_branch_b_1by3"
  param {
    lr_mult: 0
    decay_mult: 0
  }
  param {
    lr_mult: 0
    decay_mult: 0
  }
  param {
    lr_mult: 0
    decay_mult: 0
  }
  batch_norm_param {
    use_global_stats: true
  }
}
layer {
  name: "scale_stage2_block2_branch_b_1by3"
  type: "Scale"
  bottom: "conv_stage2_block2_branch_b_1by3"
  top: "conv_stage2_block2_branch_b_1by3"
  scale_param {
    bias_term: true
  }
}
layer {
  name: "relu_stage2_block2_branch_b_1by3"
  type: "ReLU"
  bottom: "conv_stage2_block2_branch_b_1by3"
  top: "conv_stage2_block2_branch_b_1by3"
}
layer {
  name: "conv_stage2_block2_branch2c"
  type: "Convolution"
  bottom: "conv_stage2_block2_branch_b_1by3"
  top: "conv_stage2_block2_branch2c"
  param {
    lr_mult: 1
    decay_mult: 1
  }
  param {
    lr_mult: 2
    decay_mult: 0
  }
  convolution_param {
    num_output: 512
    pad: 0
    kernel_size: 1
    stride: 1
    weight_filler {
      type: "msra"
    }
    bias_filler {
      type: "constant"
      value: 0
    }
  }
}
layer {
  name: "bn_stage2_block2_branch2c"
  type: "BatchNorm"
  bottom: "conv_stage2_block2_branch2c"
  top: "conv_stage2_block2_branch2c"
  param {
    lr_mult: 0
    decay_mult: 0
  }
  param {
    lr_mult: 0
    decay_mult: 0
  }
  param {
    lr_mult: 0
    decay_mult: 0
  }
  batch_norm_param {
    use_global_stats: true
  }
}
layer {
  name: "scale_stage2_block2_branch2c"
  type: "Scale"
  bottom: "conv_stage2_block2_branch2c"
  top: "conv_stage2_block2_branch2c"
  scale_param {
    bias_term: true
  }
}
layer {
  name: "eltwise_stage2_block2"
  type: "Eltwise"
  bottom: "eltwise_stage2_block1"
  bottom: "conv_stage2_block2_branch2c"
  top: "eltwise_stage2_block2"
}
layer {
  name: "relu_stage2_block2"
  type: "ReLU"
  bottom: "eltwise_stage2_block2"
  top: "eltwise_stage2_block2"
}
layer {
  name: "conv_stage2_block3_branch2a"
  type: "Convolution"
  bottom: "eltwise_stage2_block2"
  top: "conv_stage2_block3_branch2a"
  param {
    lr_mult: 1
    decay_mult: 1
  }
  param {
    lr_mult: 2
    decay_mult: 0
  }
  convolution_param {
    num_output: 128
    pad: 0
    kernel_size: 1
    stride: 1
    weight_filler {
      type: "msra"
    }
    bias_filler {
      type: "constant"
      value: 0
    }
  }
}
layer {
  name: "bn_stage2_block3_branch2a"
  type: "BatchNorm"
  bottom: "conv_stage2_block3_branch2a"
  top: "conv_stage2_block3_branch2a"
  param {
    lr_mult: 0
    decay_mult: 0
  }
  param {
    lr_mult: 0
    decay_mult: 0
  }
  param {
    lr_mult: 0
    decay_mult: 0
  }
  batch_norm_param {
    use_global_stats: true
  }
}
layer {
  name: "scale_stage2_block3_branch2a"
  type: "Scale"
  bottom: "conv_stage2_block3_branch2a"
  top: "conv_stage2_block3_branch2a"
  scale_param {
    bias_term: true
  }
}
layer {
  name: "relu_stage2_block3_branch2a"
  type: "ReLU"
  bottom: "conv_stage2_block3_branch2a"
  top: "conv_stage2_block3_branch2a"
}
layer {
  name: "conv_stage2_block3_branch_b_3by1"
  type: "Convolution"
  bottom: "conv_stage2_block3_branch2a"
  top: "conv_stage2_block3_branch_b_3by1"
  param {
    lr_mult: 1
    decay_mult: 1
  }
  param {
    lr_mult: 2
    decay_mult: 0
  }
  convolution_param {
    num_output: 128
    stride: 1
    weight_filler {
      type: "msra"
    }
    bias_filler {
      type: "constant"
      value: 0
    }
    pad_w: 1
    kernel_h: 1
    kernel_w: 3
  }
}
layer {
  name: "bn_stage2_block3_branch_b_3by1"
  type: "BatchNorm"
  bottom: "conv_stage2_block3_branch_b_3by1"
  top: "conv_stage2_block3_branch_b_3by1"
  param {
    lr_mult: 0
    decay_mult: 0
  }
  param {
    lr_mult: 0
    decay_mult: 0
  }
  param {
    lr_mult: 0
    decay_mult: 0
  }
  batch_norm_param {
    use_global_stats: true
  }
}
layer {
  name: "scale_stage2_block3_branch_b_3by1"
  type: "Scale"
  bottom: "conv_stage2_block3_branch_b_3by1"
  top: "conv_stage2_block3_branch_b_3by1"
  scale_param {
    bias_term: true
  }
}
layer {
  name: "relu_stage2_block3_branch_b_3by1"
  type: "ReLU"
  bottom: "conv_stage2_block3_branch_b_3by1"
  top: "conv_stage2_block3_branch_b_3by1"
}
layer {
  name: "conv_stage2_block3_branch_b_1by3"
  type: "Convolution"
  bottom: "conv_stage2_block3_branch_b_3by1"
  top: "conv_stage2_block3_branch_b_1by3"
  param {
    lr_mult: 1
    decay_mult: 1
  }
  param {
    lr_mult: 2
    decay_mult: 0
  }
  convolution_param {
    num_output: 128
    stride: 1
    weight_filler {
      type: "msra"
    }
    bias_filler {
      type: "constant"
      value: 0
    }
    pad_h: 1
    kernel_h: 3
    kernel_w: 1
  }
}
layer {
  name: "bn_stage2_block3_branch_b_1by3"
  type: "BatchNorm"
  bottom: "conv_stage2_block3_branch_b_1by3"
  top: "conv_stage2_block3_branch_b_1by3"
  param {
    lr_mult: 0
    decay_mult: 0
  }
  param {
    lr_mult: 0
    decay_mult: 0
  }
  param {
    lr_mult: 0
    decay_mult: 0
  }
  batch_norm_param {
    use_global_stats: true
  }
}
layer {
  name: "scale_stage2_block3_branch_b_1by3"
  type: "Scale"
  bottom: "conv_stage2_block3_branch_b_1by3"
  top: "conv_stage2_block3_branch_b_1by3"
  scale_param {
    bias_term: true
  }
}
layer {
  name: "relu_stage2_block3_branch_b_1by3"
  type: "ReLU"
  bottom: "conv_stage2_block3_branch_b_1by3"
  top: "conv_stage2_block3_branch_b_1by3"
}
layer {
  name: "conv_stage2_block3_branch2c"
  type: "Convolution"
  bottom: "conv_stage2_block3_branch_b_1by3"
  top: "conv_stage2_block3_branch2c"
  param {
    lr_mult: 1
    decay_mult: 1
  }
  param {
    lr_mult: 2
    decay_mult: 0
  }
  convolution_param {
    num_output: 512
    pad: 0
    kernel_size: 1
    stride: 1
    weight_filler {
      type: "msra"
    }
    bias_filler {
      type: "constant"
      value: 0
    }
  }
}
layer {
  name: "bn_stage2_block3_branch2c"
  type: "BatchNorm"
  bottom: "conv_stage2_block3_branch2c"
  top: "conv_stage2_block3_branch2c"
  param {
    lr_mult: 0
    decay_mult: 0
  }
  param {
    lr_mult: 0
    decay_mult: 0
  }
  param {
    lr_mult: 0
    decay_mult: 0
  }
  batch_norm_param {
    use_global_stats: true
  }
}
layer {
  name: "scale_stage2_block3_branch2c"
  type: "Scale"
  bottom: "conv_stage2_block3_branch2c"
  top: "conv_stage2_block3_branch2c"
  scale_param {
    bias_term: true
  }
}
layer {
  name: "eltwise_stage2_block3"
  type: "Eltwise"
  bottom: "eltwise_stage2_block2"
  bottom: "conv_stage2_block3_branch2c"
  top: "eltwise_stage2_block3"
}
layer {
  name: "relu_stage2_block3"
  type: "ReLU"
  bottom: "eltwise_stage2_block3"
  top: "eltwise_stage2_block3"
}
layer {
  name: "conv_stage2_block4_branch2a"
  type: "Convolution"
  bottom: "eltwise_stage2_block3"
  top: "conv_stage2_block4_branch2a"
  param {
    lr_mult: 1
    decay_mult: 1
  }
  param {
    lr_mult: 2
    decay_mult: 0
  }
  convolution_param {
    num_output: 128
    pad: 0
    kernel_size: 1
    stride: 1
    weight_filler {
      type: "msra"
    }
    bias_filler {
      type: "constant"
      value: 0
    }
  }
}
layer {
  name: "bn_stage2_block4_branch2a"
  type: "BatchNorm"
  bottom: "conv_stage2_block4_branch2a"
  top: "conv_stage2_block4_branch2a"
  param {
    lr_mult: 0
    decay_mult: 0
  }
  param {
    lr_mult: 0
    decay_mult: 0
  }
  param {
    lr_mult: 0
    decay_mult: 0
  }
  batch_norm_param {
    use_global_stats: true
  }
}
layer {
  name: "scale_stage2_block4_branch2a"
  type: "Scale"
  bottom: "conv_stage2_block4_branch2a"
  top: "conv_stage2_block4_branch2a"
  scale_param {
    bias_term: true
  }
}
layer {
  name: "relu_stage2_block4_branch2a"
  type: "ReLU"
  bottom: "conv_stage2_block4_branch2a"
  top: "conv_stage2_block4_branch2a"
}
layer {
  name: "conv_stage2_block4_branch_b_3by1"
  type: "Convolution"
  bottom: "conv_stage2_block4_branch2a"
  top: "conv_stage2_block4_branch_b_3by1"
  param {
    lr_mult: 1
    decay_mult: 1
  }
  param {
    lr_mult: 2
    decay_mult: 0
  }
  convolution_param {
    num_output: 128
    stride: 1
    weight_filler {
      type: "msra"
    }
    bias_filler {
      type: "constant"
      value: 0
    }
    pad_w: 1
    kernel_h: 1
    kernel_w: 3
  }
}
layer {
  name: "bn_stage2_block4_branch_b_3by1"
  type: "BatchNorm"
  bottom: "conv_stage2_block4_branch_b_3by1"
  top: "conv_stage2_block4_branch_b_3by1"
  param {
    lr_mult: 0
    decay_mult: 0
  }
  param {
    lr_mult: 0
    decay_mult: 0
  }
  param {
    lr_mult: 0
    decay_mult: 0
  }
  batch_norm_param {
    use_global_stats: true
  }
}
layer {
  name: "scale_stage2_block4_branch_b_3by1"
  type: "Scale"
  bottom: "conv_stage2_block4_branch_b_3by1"
  top: "conv_stage2_block4_branch_b_3by1"
  scale_param {
    bias_term: true
  }
}
layer {
  name: "relu_stage2_block4_branch_b_3by1"
  type: "ReLU"
  bottom: "conv_stage2_block4_branch_b_3by1"
  top: "conv_stage2_block4_branch_b_3by1"
}
layer {
  name: "conv_stage2_block4_branch_b_1by3"
  type: "Convolution"
  bottom: "conv_stage2_block4_branch_b_3by1"
  top: "conv_stage2_block4_branch_b_1by3"
  param {
    lr_mult: 1
    decay_mult: 1
  }
  param {
    lr_mult: 2
    decay_mult: 0
  }
  convolution_param {
    num_output: 128
    stride: 1
    weight_filler {
      type: "msra"
    }
    bias_filler {
      type: "constant"
      value: 0
    }
    pad_h: 1
    kernel_h: 3
    kernel_w: 1
  }
}
layer {
  name: "bn_stage2_block4_branch_b_1by3"
  type: "BatchNorm"
  bottom: "conv_stage2_block4_branch_b_1by3"
  top: "conv_stage2_block4_branch_b_1by3"
  param {
    lr_mult: 0
    decay_mult: 0
  }
  param {
    lr_mult: 0
    decay_mult: 0
  }
  param {
    lr_mult: 0
    decay_mult: 0
  }
  batch_norm_param {
    use_global_stats: true
  }
}
layer {
  name: "scale_stage2_block4_branch_b_1by3"
  type: "Scale"
  bottom: "conv_stage2_block4_branch_b_1by3"
  top: "conv_stage2_block4_branch_b_1by3"
  scale_param {
    bias_term: true
  }
}
layer {
  name: "relu_stage2_block4_branch_b_1by3"
  type: "ReLU"
  bottom: "conv_stage2_block4_branch_b_1by3"
  top: "conv_stage2_block4_branch_b_1by3"
}
layer {
  name: "conv_stage2_block4_branch2c"
  type: "Convolution"
  bottom: "conv_stage2_block4_branch_b_1by3"
  top: "conv_stage2_block4_branch2c"
  param {
    lr_mult: 1
    decay_mult: 1
  }
  param {
    lr_mult: 2
    decay_mult: 0
  }
  convolution_param {
    num_output: 512
    pad: 0
    kernel_size: 1
    stride: 1
    weight_filler {
      type: "msra"
    }
    bias_filler {
      type: "constant"
      value: 0
    }
  }
}
layer {
  name: "bn_stage2_block4_branch2c"
  type: "BatchNorm"
  bottom: "conv_stage2_block4_branch2c"
  top: "conv_stage2_block4_branch2c"
  param {
    lr_mult: 0
    decay_mult: 0
  }
  param {
    lr_mult: 0
    decay_mult: 0
  }
  param {
    lr_mult: 0
    decay_mult: 0
  }
  batch_norm_param {
    use_global_stats: true
  }
}
layer {
  name: "scale_stage2_block4_branch2c"
  type: "Scale"
  bottom: "conv_stage2_block4_branch2c"
  top: "conv_stage2_block4_branch2c"
  scale_param {
    bias_term: true
  }
}
layer {
  name: "eltwise_stage2_block4"
  type: "Eltwise"
  bottom: "eltwise_stage2_block3"
  bottom: "conv_stage2_block4_branch2c"
  top: "eltwise_stage2_block4"
}
layer {
  name: "relu_stage2_block4"
  type: "ReLU"
  bottom: "eltwise_stage2_block4"
  top: "eltwise_stage2_block4"
}
layer {
  name: "conv_stage2_block5_branch2a"
  type: "Convolution"
  bottom: "eltwise_stage2_block4"
  top: "conv_stage2_block5_branch2a"
  param {
    lr_mult: 1
    decay_mult: 1
  }
  param {
    lr_mult: 2
    decay_mult: 0
  }
  convolution_param {
    num_output: 128
    pad: 0
    kernel_size: 1
    stride: 1
    weight_filler {
      type: "msra"
    }
    bias_filler {
      type: "constant"
      value: 0
    }
  }
}
layer {
  name: "bn_stage2_block5_branch2a"
  type: "BatchNorm"
  bottom: "conv_stage2_block5_branch2a"
  top: "conv_stage2_block5_branch2a"
  param {
    lr_mult: 0
    decay_mult: 0
  }
  param {
    lr_mult: 0
    decay_mult: 0
  }
  param {
    lr_mult: 0
    decay_mult: 0
  }
  batch_norm_param {
    use_global_stats: true
  }
}
layer {
  name: "scale_stage2_block5_branch2a"
  type: "Scale"
  bottom: "conv_stage2_block5_branch2a"
  top: "conv_stage2_block5_branch2a"
  scale_param {
    bias_term: true
  }
}
layer {
  name: "relu_stage2_block5_branch2a"
  type: "ReLU"
  bottom: "conv_stage2_block5_branch2a"
  top: "conv_stage2_block5_branch2a"
}
layer {
  name: "conv_stage2_block5_branch_b_3by1"
  type: "Convolution"
  bottom: "conv_stage2_block5_branch2a"
  top: "conv_stage2_block5_branch_b_3by1"
  param {
    lr_mult: 1
    decay_mult: 1
  }
  param {
    lr_mult: 2
    decay_mult: 0
  }
  convolution_param {
    num_output: 128
    stride: 1
    weight_filler {
      type: "msra"
    }
    bias_filler {
      type: "constant"
      value: 0
    }
    pad_w: 1
    kernel_h: 1
    kernel_w: 3
  }
}
layer {
  name: "bn_stage2_block5_branch_b_3by1"
  type: "BatchNorm"
  bottom: "conv_stage2_block5_branch_b_3by1"
  top: "conv_stage2_block5_branch_b_3by1"
  param {
    lr_mult: 0
    decay_mult: 0
  }
  param {
    lr_mult: 0
    decay_mult: 0
  }
  param {
    lr_mult: 0
    decay_mult: 0
  }
  batch_norm_param {
    use_global_stats: true
  }
}
layer {
  name: "scale_stage2_block5_branch_b_3by1"
  type: "Scale"
  bottom: "conv_stage2_block5_branch_b_3by1"
  top: "conv_stage2_block5_branch_b_3by1"
  scale_param {
    bias_term: true
  }
}
layer {
  name: "relu_stage2_block5_branch_b_3by1"
  type: "ReLU"
  bottom: "conv_stage2_block5_branch_b_3by1"
  top: "conv_stage2_block5_branch_b_3by1"
}
layer {
  name: "conv_stage2_block5_branch_b_1by3"
  type: "Convolution"
  bottom: "conv_stage2_block5_branch_b_3by1"
  top: "conv_stage2_block5_branch_b_1by3"
  param {
    lr_mult: 1
    decay_mult: 1
  }
  param {
    lr_mult: 2
    decay_mult: 0
  }
  convolution_param {
    num_output: 128
    stride: 1
    weight_filler {
      type: "msra"
    }
    bias_filler {
      type: "constant"
      value: 0
    }
    pad_h: 1
    kernel_h: 3
    kernel_w: 1
  }
}
layer {
  name: "bn_stage2_block5_branch_b_1by3"
  type: "BatchNorm"
  bottom: "conv_stage2_block5_branch_b_1by3"
  top: "conv_stage2_block5_branch_b_1by3"
  param {
    lr_mult: 0
    decay_mult: 0
  }
  param {
    lr_mult: 0
    decay_mult: 0
  }
  param {
    lr_mult: 0
    decay_mult: 0
  }
  batch_norm_param {
    use_global_stats: true
  }
}
layer {
  name: "scale_stage2_block5_branch_b_1by3"
  type: "Scale"
  bottom: "conv_stage2_block5_branch_b_1by3"
  top: "conv_stage2_block5_branch_b_1by3"
  scale_param {
    bias_term: true
  }
}
layer {
  name: "relu_stage2_block5_branch_b_1by3"
  type: "ReLU"
  bottom: "conv_stage2_block5_branch_b_1by3"
  top: "conv_stage2_block5_branch_b_1by3"
}
layer {
  name: "conv_stage2_block5_branch2c"
  type: "Convolution"
  bottom: "conv_stage2_block5_branch_b_1by3"
  top: "conv_stage2_block5_branch2c"
  param {
    lr_mult: 1
    decay_mult: 1
  }
  param {
    lr_mult: 2
    decay_mult: 0
  }
  convolution_param {
    num_output: 512
    pad: 0
    kernel_size: 1
    stride: 1
    weight_filler {
      type: "msra"
    }
    bias_filler {
      type: "constant"
      value: 0
    }
  }
}
layer {
  name: "bn_stage2_block5_branch2c"
  type: "BatchNorm"
  bottom: "conv_stage2_block5_branch2c"
  top: "conv_stage2_block5_branch2c"
  param {
    lr_mult: 0
    decay_mult: 0
  }
  param {
    lr_mult: 0
    decay_mult: 0
  }
  param {
    lr_mult: 0
    decay_mult: 0
  }
  batch_norm_param {
    use_global_stats: true
  }
}
layer {
  name: "scale_stage2_block5_branch2c"
  type: "Scale"
  bottom: "conv_stage2_block5_branch2c"
  top: "conv_stage2_block5_branch2c"
  scale_param {
    bias_term: true
  }
}
layer {
  name: "eltwise_stage2_block5"
  type: "Eltwise"
  bottom: "eltwise_stage2_block4"
  bottom: "conv_stage2_block5_branch2c"
  top: "eltwise_stage2_block5"
}
layer {
  name: "relu_stage2_block5"
  type: "ReLU"
  bottom: "eltwise_stage2_block5"
  top: "eltwise_stage2_block5"
}
layer {
  name: "conv_stage3_block0_proj_shortcut"
  type: "Convolution"
  bottom: "eltwise_stage2_block5"
  top: "conv_stage3_block0_proj_shortcut"
  param {
    lr_mult: 1
    decay_mult: 1
  }
  param {
    lr_mult: 2
    decay_mult: 0
  }
  convolution_param {
    num_output: 1024
    pad: 0
    kernel_size: 1
    stride: 2
    weight_filler {
      type: "msra"
    }
    bias_filler {
      type: "constant"
      value: 0
    }
  }
}
layer {
  name: "bn_stage3_block0_proj_shortcut"
  type: "BatchNorm"
  bottom: "conv_stage3_block0_proj_shortcut"
  top: "conv_stage3_block0_proj_shortcut"
  param {
    lr_mult: 0
    decay_mult: 0
  }
  param {
    lr_mult: 0
    decay_mult: 0
  }
  param {
    lr_mult: 0
    decay_mult: 0
  }
  batch_norm_param {
    use_global_stats: true
  }
}
layer {
  name: "scale_stage3_block0_proj_shortcut"
  type: "Scale"
  bottom: "conv_stage3_block0_proj_shortcut"
  top: "conv_stage3_block0_proj_shortcut"
  scale_param {
    bias_term: true
  }
}
layer {
  name: "conv_stage3_block0_branch2a"
  type: "Convolution"
  bottom: "eltwise_stage2_block5"
  top: "conv_stage3_block0_branch2a"
  param {
    lr_mult: 1
    decay_mult: 1
  }
  param {
    lr_mult: 2
    decay_mult: 0
  }
  convolution_param {
    num_output: 256
    pad: 0
    kernel_size: 1
    stride: 2
    weight_filler {
      type: "msra"
    }
    bias_filler {
      type: "constant"
      value: 0
    }
  }
}
layer {
  name: "bn_stage3_block0_branch2a"
  type: "BatchNorm"
  bottom: "conv_stage3_block0_branch2a"
  top: "conv_stage3_block0_branch2a"
  param {
    lr_mult: 0
    decay_mult: 0
  }
  param {
    lr_mult: 0
    decay_mult: 0
  }
  param {
    lr_mult: 0
    decay_mult: 0
  }
  batch_norm_param {
    use_global_stats: true
  }
}
layer {
  name: "scale_stage3_block0_branch2a"
  type: "Scale"
  bottom: "conv_stage3_block0_branch2a"
  top: "conv_stage3_block0_branch2a"
  scale_param {
    bias_term: true
  }
}
layer {
  name: "relu_stage3_block0_branch2a"
  type: "ReLU"
  bottom: "conv_stage3_block0_branch2a"
  top: "conv_stage3_block0_branch2a"
}
layer {
  name: "conv_stage3_block0_branch_b_3by1"
  type: "Convolution"
  bottom: "conv_stage3_block0_branch2a"
  top: "conv_stage3_block0_branch_b_3by1"
  param {
    lr_mult: 1
    decay_mult: 1
  }
  param {
    lr_mult: 2
    decay_mult: 0
  }
  convolution_param {
    num_output: 256
    stride: 1
    weight_filler {
      type: "msra"
    }
    bias_filler {
      type: "constant"
      value: 0
    }
    pad_w: 1
    kernel_h: 1
    kernel_w: 3
  }
}
layer {
  name: "bn_stage3_block0_branch_b_3by1"
  type: "BatchNorm"
  bottom: "conv_stage3_block0_branch_b_3by1"
  top: "conv_stage3_block0_branch_b_3by1"
  param {
    lr_mult: 0
    decay_mult: 0
  }
  param {
    lr_mult: 0
    decay_mult: 0
  }
  param {
    lr_mult: 0
    decay_mult: 0
  }
  batch_norm_param {
    use_global_stats: true
  }
}
layer {
  name: "scale_stage3_block0_branch_b_3by1"
  type: "Scale"
  bottom: "conv_stage3_block0_branch_b_3by1"
  top: "conv_stage3_block0_branch_b_3by1"
  scale_param {
    bias_term: true
  }
}
layer {
  name: "relu_stage3_block0_branch_b_3by1"
  type: "ReLU"
  bottom: "conv_stage3_block0_branch_b_3by1"
  top: "conv_stage3_block0_branch_b_3by1"
}
layer {
  name: "conv_stage3_block0_branch_b_1by3"
  type: "Convolution"
  bottom: "conv_stage3_block0_branch_b_3by1"
  top: "conv_stage3_block0_branch_b_1by3"
  param {
    lr_mult: 1
    decay_mult: 1
  }
  param {
    lr_mult: 2
    decay_mult: 0
  }
  convolution_param {
    num_output: 256
    stride: 1
    weight_filler {
      type: "msra"
    }
    bias_filler {
      type: "constant"
      value: 0
    }
    pad_h: 1
    kernel_h: 3
    kernel_w: 1
  }
}
layer {
  name: "bn_stage3_block0_branch_b_1by3"
  type: "BatchNorm"
  bottom: "conv_stage3_block0_branch_b_1by3"
  top: "conv_stage3_block0_branch_b_1by3"
  param {
    lr_mult: 0
    decay_mult: 0
  }
  param {
    lr_mult: 0
    decay_mult: 0
  }
  param {
    lr_mult: 0
    decay_mult: 0
  }
  batch_norm_param {
    use_global_stats: true
  }
}
layer {
  name: "scale_stage3_block0_branch_b_1by3"
  type: "Scale"
  bottom: "conv_stage3_block0_branch_b_1by3"
  top: "conv_stage3_block0_branch_b_1by3"
  scale_param {
    bias_term: true
  }
}
layer {
  name: "relu_stage3_block0_branch_b_1by3"
  type: "ReLU"
  bottom: "conv_stage3_block0_branch_b_1by3"
  top: "conv_stage3_block0_branch_b_1by3"
}
layer {
  name: "conv_stage3_block0_branch2c"
  type: "Convolution"
  bottom: "conv_stage3_block0_branch_b_1by3"
  top: "conv_stage3_block0_branch2c"
  param {
    lr_mult: 1
    decay_mult: 1
  }
  param {
    lr_mult: 2
    decay_mult: 0
  }
  convolution_param {
    num_output: 1024
    pad: 0
    kernel_size: 1
    stride: 1
    weight_filler {
      type: "msra"
    }
    bias_filler {
      type: "constant"
      value: 0
    }
  }
}
layer {
  name: "bn_stage3_block0_branch2c"
  type: "BatchNorm"
  bottom: "conv_stage3_block0_branch2c"
  top: "conv_stage3_block0_branch2c"
  param {
    lr_mult: 0
    decay_mult: 0
  }
  param {
    lr_mult: 0
    decay_mult: 0
  }
  param {
    lr_mult: 0
    decay_mult: 0
  }
  batch_norm_param {
    use_global_stats: true
  }
}
layer {
  name: "scale_stage3_block0_branch2c"
  type: "Scale"
  bottom: "conv_stage3_block0_branch2c"
  top: "conv_stage3_block0_branch2c"
  scale_param {
    bias_term: true
  }
}
layer {
  name: "eltwise_stage3_block0"
  type: "Eltwise"
  bottom: "conv_stage3_block0_proj_shortcut"
  bottom: "conv_stage3_block0_branch2c"
  top: "eltwise_stage3_block0"
}
layer {
  name: "relu_stage3_block0"
  type: "ReLU"
  bottom: "eltwise_stage3_block0"
  top: "eltwise_stage3_block0"
}
layer {
  name: "conv_stage3_block1_branch2a"
  type: "Convolution"
  bottom: "eltwise_stage3_block0"
  top: "conv_stage3_block1_branch2a"
  param {
    lr_mult: 1
    decay_mult: 1
  }
  param {
    lr_mult: 2
    decay_mult: 0
  }
  convolution_param {
    num_output: 256
    pad: 0
    kernel_size: 1
    stride: 1
    weight_filler {
      type: "msra"
    }
    bias_filler {
      type: "constant"
      value: 0
    }
  }
}
layer {
  name: "bn_stage3_block1_branch2a"
  type: "BatchNorm"
  bottom: "conv_stage3_block1_branch2a"
  top: "conv_stage3_block1_branch2a"
  param {
    lr_mult: 0
    decay_mult: 0
  }
  param {
    lr_mult: 0
    decay_mult: 0
  }
  param {
    lr_mult: 0
    decay_mult: 0
  }
  batch_norm_param {
    use_global_stats: true
  }
}
layer {
  name: "scale_stage3_block1_branch2a"
  type: "Scale"
  bottom: "conv_stage3_block1_branch2a"
  top: "conv_stage3_block1_branch2a"
  scale_param {
    bias_term: true
  }
}
layer {
  name: "relu_stage3_block1_branch2a"
  type: "ReLU"
  bottom: "conv_stage3_block1_branch2a"
  top: "conv_stage3_block1_branch2a"
}
layer {
  name: "conv_stage3_block1_branch_b_3by1"
  type: "Convolution"
  bottom: "conv_stage3_block1_branch2a"
  top: "conv_stage3_block1_branch_b_3by1"
  param {
    lr_mult: 1
    decay_mult: 1
  }
  param {
    lr_mult: 2
    decay_mult: 0
  }
  convolution_param {
    num_output: 256
    stride: 1
    weight_filler {
      type: "msra"
    }
    bias_filler {
      type: "constant"
      value: 0
    }
    pad_w: 1
    kernel_h: 1
    kernel_w: 3
  }
}
layer {
  name: "bn_stage3_block1_branch_b_3by1"
  type: "BatchNorm"
  bottom: "conv_stage3_block1_branch_b_3by1"
  top: "conv_stage3_block1_branch_b_3by1"
  param {
    lr_mult: 0
    decay_mult: 0
  }
  param {
    lr_mult: 0
    decay_mult: 0
  }
  param {
    lr_mult: 0
    decay_mult: 0
  }
  batch_norm_param {
    use_global_stats: true
  }
}
layer {
  name: "scale_stage3_block1_branch_b_3by1"
  type: "Scale"
  bottom: "conv_stage3_block1_branch_b_3by1"
  top: "conv_stage3_block1_branch_b_3by1"
  scale_param {
    bias_term: true
  }
}
layer {
  name: "relu_stage3_block1_branch_b_3by1"
  type: "ReLU"
  bottom: "conv_stage3_block1_branch_b_3by1"
  top: "conv_stage3_block1_branch_b_3by1"
}
layer {
  name: "conv_stage3_block1_branch_b_1by3"
  type: "Convolution"
  bottom: "conv_stage3_block1_branch_b_3by1"
  top: "conv_stage3_block1_branch_b_1by3"
  param {
    lr_mult: 1
    decay_mult: 1
  }
  param {
    lr_mult: 2
    decay_mult: 0
  }
  convolution_param {
    num_output: 256
    stride: 1
    weight_filler {
      type: "msra"
    }
    bias_filler {
      type: "constant"
      value: 0
    }
    pad_h: 1
    kernel_h: 3
    kernel_w: 1
  }
}
layer {
  name: "bn_stage3_block1_branch_b_1by3"
  type: "BatchNorm"
  bottom: "conv_stage3_block1_branch_b_1by3"
  top: "conv_stage3_block1_branch_b_1by3"
  param {
    lr_mult: 0
    decay_mult: 0
  }
  param {
    lr_mult: 0
    decay_mult: 0
  }
  param {
    lr_mult: 0
    decay_mult: 0
  }
  batch_norm_param {
    use_global_stats: true
  }
}
layer {
  name: "scale_stage3_block1_branch_b_1by3"
  type: "Scale"
  bottom: "conv_stage3_block1_branch_b_1by3"
  top: "conv_stage3_block1_branch_b_1by3"
  scale_param {
    bias_term: true
  }
}
layer {
  name: "relu_stage3_block1_branch_b_1by3"
  type: "ReLU"
  bottom: "conv_stage3_block1_branch_b_1by3"
  top: "conv_stage3_block1_branch_b_1by3"
}
layer {
  name: "conv_stage3_block1_branch2c"
  type: "Convolution"
  bottom: "conv_stage3_block1_branch_b_1by3"
  top: "conv_stage3_block1_branch2c"
  param {
    lr_mult: 1
    decay_mult: 1
  }
  param {
    lr_mult: 2
    decay_mult: 0
  }
  convolution_param {
    num_output: 1024
    pad: 0
    kernel_size: 1
    stride: 1
    weight_filler {
      type: "msra"
    }
    bias_filler {
      type: "constant"
      value: 0
    }
  }
}
layer {
  name: "bn_stage3_block1_branch2c"
  type: "BatchNorm"
  bottom: "conv_stage3_block1_branch2c"
  top: "conv_stage3_block1_branch2c"
  param {
    lr_mult: 0
    decay_mult: 0
  }
  param {
    lr_mult: 0
    decay_mult: 0
  }
  param {
    lr_mult: 0
    decay_mult: 0
  }
  batch_norm_param {
    use_global_stats: true
  }
}
layer {
  name: "scale_stage3_block1_branch2c"
  type: "Scale"
  bottom: "conv_stage3_block1_branch2c"
  top: "conv_stage3_block1_branch2c"
  scale_param {
    bias_term: true
  }
}
layer {
  name: "eltwise_stage3_block1"
  type: "Eltwise"
  bottom: "eltwise_stage3_block0"
  bottom: "conv_stage3_block1_branch2c"
  top: "eltwise_stage3_block1"
}
layer {
  name: "relu_stage3_block1"
  type: "ReLU"
  bottom: "eltwise_stage3_block1"
  top: "eltwise_stage3_block1"
}
layer {
  name: "conv_stage3_block2_branch2a"
  type: "Convolution"
  bottom: "eltwise_stage3_block1"
  top: "conv_stage3_block2_branch2a"
  param {
    lr_mult: 1
    decay_mult: 1
  }
  param {
    lr_mult: 2
    decay_mult: 0
  }
  convolution_param {
    num_output: 256
    pad: 0
    kernel_size: 1
    stride: 1
    weight_filler {
      type: "msra"
    }
    bias_filler {
      type: "constant"
      value: 0
    }
  }
}
layer {
  name: "bn_stage3_block2_branch2a"
  type: "BatchNorm"
  bottom: "conv_stage3_block2_branch2a"
  top: "conv_stage3_block2_branch2a"
  param {
    lr_mult: 0
    decay_mult: 0
  }
  param {
    lr_mult: 0
    decay_mult: 0
  }
  param {
    lr_mult: 0
    decay_mult: 0
  }
  batch_norm_param {
    use_global_stats: true
  }
}
layer {
  name: "scale_stage3_block2_branch2a"
  type: "Scale"
  bottom: "conv_stage3_block2_branch2a"
  top: "conv_stage3_block2_branch2a"
  scale_param {
    bias_term: true
  }
}
layer {
  name: "relu_stage3_block2_branch2a"
  type: "ReLU"
  bottom: "conv_stage3_block2_branch2a"
  top: "conv_stage3_block2_branch2a"
}
layer {
  name: "conv_stage3_block2_branch_b_3by1"
  type: "Convolution"
  bottom: "conv_stage3_block2_branch2a"
  top: "conv_stage3_block2_branch_b_3by1"
  param {
    lr_mult: 1
    decay_mult: 1
  }
  param {
    lr_mult: 2
    decay_mult: 0
  }
  convolution_param {
    num_output: 256
    stride: 1
    weight_filler {
      type: "msra"
    }
    bias_filler {
      type: "constant"
      value: 0
    }
    pad_w: 1
    kernel_h: 1
    kernel_w: 3
  }
}
layer {
  name: "bn_stage3_block2_branch_b_3by1"
  type: "BatchNorm"
  bottom: "conv_stage3_block2_branch_b_3by1"
  top: "conv_stage3_block2_branch_b_3by1"
  param {
    lr_mult: 0
    decay_mult: 0
  }
  param {
    lr_mult: 0
    decay_mult: 0
  }
  param {
    lr_mult: 0
    decay_mult: 0
  }
  batch_norm_param {
    use_global_stats: true
  }
}
layer {
  name: "scale_stage3_block2_branch_b_3by1"
  type: "Scale"
  bottom: "conv_stage3_block2_branch_b_3by1"
  top: "conv_stage3_block2_branch_b_3by1"
  scale_param {
    bias_term: true
  }
}
layer {
  name: "relu_stage3_block2_branch_b_3by1"
  type: "ReLU"
  bottom: "conv_stage3_block2_branch_b_3by1"
  top: "conv_stage3_block2_branch_b_3by1"
}
layer {
  name: "conv_stage3_block2_branch_b_1by3"
  type: "Convolution"
  bottom: "conv_stage3_block2_branch_b_3by1"
  top: "conv_stage3_block2_branch_b_1by3"
  param {
    lr_mult: 1
    decay_mult: 1
  }
  param {
    lr_mult: 2
    decay_mult: 0
  }
  convolution_param {
    num_output: 256
    stride: 1
    weight_filler {
      type: "msra"
    }
    bias_filler {
      type: "constant"
      value: 0
    }
    pad_h: 1
    kernel_h: 3
    kernel_w: 1
  }
}
layer {
  name: "bn_stage3_block2_branch_b_1by3"
  type: "BatchNorm"
  bottom: "conv_stage3_block2_branch_b_1by3"
  top: "conv_stage3_block2_branch_b_1by3"
  param {
    lr_mult: 0
    decay_mult: 0
  }
  param {
    lr_mult: 0
    decay_mult: 0
  }
  param {
    lr_mult: 0
    decay_mult: 0
  }
  batch_norm_param {
    use_global_stats: true
  }
}
layer {
  name: "scale_stage3_block2_branch_b_1by3"
  type: "Scale"
  bottom: "conv_stage3_block2_branch_b_1by3"
  top: "conv_stage3_block2_branch_b_1by3"
  scale_param {
    bias_term: true
  }
}
layer {
  name: "relu_stage3_block2_branch_b_1by3"
  type: "ReLU"
  bottom: "conv_stage3_block2_branch_b_1by3"
  top: "conv_stage3_block2_branch_b_1by3"
}
layer {
  name: "conv_stage3_block2_branch2c"
  type: "Convolution"
  bottom: "conv_stage3_block2_branch_b_1by3"
  top: "conv_stage3_block2_branch2c"
  param {
    lr_mult: 1
    decay_mult: 1
  }
  param {
    lr_mult: 2
    decay_mult: 0
  }
  convolution_param {
    num_output: 1024
    pad: 0
    kernel_size: 1
    stride: 1
    weight_filler {
      type: "msra"
    }
    bias_filler {
      type: "constant"
      value: 0
    }
  }
}
layer {
  name: "bn_stage3_block2_branch2c"
  type: "BatchNorm"
  bottom: "conv_stage3_block2_branch2c"
  top: "conv_stage3_block2_branch2c"
  param {
    lr_mult: 0
    decay_mult: 0
  }
  param {
    lr_mult: 0
    decay_mult: 0
  }
  param {
    lr_mult: 0
    decay_mult: 0
  }
  batch_norm_param {
    use_global_stats: true
  }
}
layer {
  name: "scale_stage3_block2_branch2c"
  type: "Scale"
  bottom: "conv_stage3_block2_branch2c"
  top: "conv_stage3_block2_branch2c"
  scale_param {
    bias_term: true
  }
}
layer {
  name: "eltwise_stage3_block2"
  type: "Eltwise"
  bottom: "eltwise_stage3_block1"
  bottom: "conv_stage3_block2_branch2c"
  top: "eltwise_stage3_block2"
}
layer {
  name: "relu_stage3_block2"
  type: "ReLU"
  bottom: "eltwise_stage3_block2"
  top: "eltwise_stage3_block2"
}
layer {
  name: "pool"
  type: "Pooling"
  bottom: "eltwise_stage3_block2"
  top: "pool"
  pooling_param {
    pool: AVE
    kernel_size: 7
    stride: 1
  }
}
layer {
  name: "fc1000"
  type: "InnerProduct"
  bottom: "pool"
  top: "fc1000"
  param {
    lr_mult: 1
    decay_mult: 1
  }
  param {
    lr_mult: 2
    decay_mult: 0
  }
  inner_product_param {
    num_output: 1000
    weight_filler {
      type: "msra"
    }
    bias_filler {
      type: "constant"
    }
  }
}
layer {
  name: "loss"
  type: "SoftmaxWithLoss"
  bottom: "fc1000"
  bottom: "label"
  top: "loss"
}
layer {
  name: "accuracy"
  type: "Accuracy"
  bottom: "fc1000"
  bottom: "label"
  top: "accuracy"
}

